logs/experiment1/model.pth (torch, 179298 bytes, 24 tensors)

0.weight f4 [16, 3, 3, 3]
-0.32925382 0.040399726 0.25716257 -0.17499503 0.14417495 0.32852343 0.32486707 0.51617104
0.54124856 -0.5889086 -0.52757597 -0.42471156 -0.6944645 -0.6845469 -0.36143583 -0.7210944
-0.52019465 -0.38702315 0.30018994 0.47591582 0.44694862 0.5206309 0.61337566 0.37487763
0.5503373 0.36849293 0.25428864 -0.12881026 -0.037217718 -0.015504226 -0.59512854 -0.3742208
-0.40897053 -0.46853343 -0.4389768 -0.27474698 0.3486452 0.07613928 0.4422066 -0.053767536
0.037294295 0.29267308 0.17021121 0.12951088 0.19192669 -0.10307801 0.2826307 0.2201958
0.2810475 0.21148428 0.091703966 0.20111535 0.2786778 0.27180937 0.09515041 -0.0012326136
7.1666664e-06 0.02886045 -0.13061292 0.030069832 0.1362311 -0.08015047 0.06344683 -0.06319286
0.055218406 0.07817226 -0.06653272 0.12698227 -0.10970609 -0.10820293 0.10311465 0.15071745
-0.020752257 -0.044138093 0.10197247 -0.08844248 0.2063209 0.024975017 -0.16663434 0.21045241
-0.11189551 -0.041045267 0.16660677 -0.1198235 0.13523395 0.18452403 0.101250246 0.14570425
-0.020503435 -0.14672406 -0.03092202 0.3058761 0.16275544 -0.062117454 -0.021811659 0.17961183
0.25805023 0.23261036 0.30906337 -0.08552051 0.2843451 -0.042653933 0.07425744 0.2712476
0.02614499 -0.042009328 -0.0037400553 0.15030262 0.07065062 -0.071312755 -0.23754328 -0.1157137
-0.12679341 -0.4414776 -0.112650804 -0.14243214 -0.33374387 0.30390263 0.10948461 -0.22443458
0.24505948 0.2013002 -0.0851759 0.44476295 0.34506223 -0.06458265 0.3249435 -0.09021133
-0.16815275 0.38259658 0.058626577 -0.13487586 0.4455686 0.29151142 -0.029034741 -0.07399054
0.2528542 0.32661998 -0.34500328 -0.057231925 0.2748481 -0.4220453 -0.13507143 -0.19555543
-0.03836389 0.14727566 0.46698254 -0.16967955 0.2082855 0.085371666 -0.197042 -0.01743293
0.12588619 -0.47429597 -0.33287233 -0.0030678129 -0.29297572 -0.38263327 0.038142946 -0.11370326
-0.2997728 -0.02702816 0.14971359 0.011764014 0.17603043 -0.4574509 -0.2708905 -0.13484935
-0.3170331 -0.4996608 -0.304265 -0.05749003 -0.091088794 0.09596359 -0.2866098 -0.19770126
0.021162849 -0.042293485 -0.11914037 -0.17934142 -0.051370807 0.16174202 0.09645938 0.12557237
0.0846652 0.02984465 -0.09947317 0.27436897 0.31223714 -0.6257936 -0.6417041 -0.4715509
-0.48781458 -0.7360333 -0.67934483 -0.37681156 -0.4119107 -0.30324748 -0.053540558 -0.3425138
-0.12352903 0.19363323 0.09428908 0.25491345 0.49342862 0.247386 0.4898712 0.13134201
0.12108999 0.026702939 0.12998675 0.03795255 0.23454604 0.35336742 0.11305285 0.53758705
-0.009840898 -0.27517566 -0.2868764 -0.035793766 0.12099673 -0.100494444 0.021007307 -0.080477424
0.19473241 -0.11977446 -0.29667142 -0.1536054 -0.0044395244 -0.039248496 -0.050758567 0.20305194
0.24982429 0.06744343 0.0062126364 0.015160843 -0.117397696 0.032584704 -0.06076078 -0.038000762
0.22395365 -0.023565799 0.24297619 -0.1884468 -0.21641329 0.043488573 -0.063860066 -0.030887486
0.13905051 -0.17037752 0.017119054 0.14537042 -0.02824469 -0.024654362 0.04071987 -0.16728273
00000000: f593 a8be 2f7a 253d d0aa 833e e631 33be
00000010: 99a2 133e 3934 a83e fa54 a63e c923 043f
00000020: 448f 0a3f b7c2 16bf 380f 07bf cb73 d9be
00000030: 6dc8 31bf 773e 2fbf 1e0e b9be a599 38bf
00000040: 7a2b 05bf e627 c6be 7fb2 993e 3dab f33e
00000050: 73d6 e43e 1148 053f 3006 1d3f f6ef bf3e
00000060: e8e2 0c3f 1bab bc3e 1f32 823e d6e6 03be
00000070: 9b71 18bd 7005 7ebc 585a 18bf de99 bfbe
00000080: 9664 d1be 9de3 efbe 91c1 e0be a3ab 8cbe
00000090: a081 b23e e9ee 9b3d e768 e23e 593b 5cbd
000000a0: e7c1 183d 3fd9 953e d94b 2e3e 809e 043e
000000b0: 6e88 443e 901a d3bd f9b4 903e 027b 613e
000000c0: 75e5 8f3e 568f 583e 4acf bb3d 2ff1 4d3e
000000d0: dbae 8e3e 992a 8b3e 38de c23d a68f a1ba
000000e0: 3279 f036 c06c ec3c 65bf 05be 0255 f63c
000000f0: 2a80 0b3e ee25 a4bd 69f0 813d 426b 81bd
00000100: b22c 623d c718 a03d 4f42 88bd a407 023e
00000110: 96ad e0bd 7f99 ddbd c62d d33d ad55 1a3e
00000120: a300 aabc 25ca 34bd f1d6 d03d 5521 b5bd
00000130: c945 533e 6898 cc3c 31a2 2abe d680 573e
00000140: 7929 e5bd 151f 28bd f79a 2a3e 0666 f5bd
00000150: c57a 0a3e def3 3c3e 4a5c cf3d 7f33 153e
00000160: d2f6 a7bc d53e 16be 2d50 fdbc cb9b 9c3e
00000170: 5da9 263e df6e 7ebd 5dae b2bc 2aec 373e
00000180: 291f 843e 6931 6e3e 8e3d 9e3e 6125 afbd
00000190: ae95 913e e4b5 2ebd 4914 983d f7e0 8a3e
000001a0: 052e d63c f911 2cbd b71b 75bb eee8 193e
000001b0: 46b1 903d 6c0c 92bd 8c3e 73be 4efb ecbd
000001c0: 22d6 01be 5a09 e2be 77b5 e6bd bbd9 11be
000001d0: 7ae0 aabe 2099 9b3e 7839 e03d 2ed2 65be
000001e0: dff0 7a3e a421 4e3e b470 aebd f8b7 e33e
000001f0: ffab b03e e943 84bd ff5e a63e b8c0 b8bd
00000200: 3c30 2cbe b3e3 c33e 6c22 703d e61c 0abe
00000210: 9121 e43e fc40 953e 44da edbc 5a88 97bd
00000220: 1b76 813e bc3a a73e 45a4 b0be 066c 6abd
00000230: e4b8 8c3e 5216 d8be 2a50 0abe af3f 48be
00000240: 7423 1dbd 6ecf 163e 5618 ef3e 7ac0 2dbe
00000250: cb48 553e 57d7 ae3d 61c5 49be 81cf 8ebc
00000260: 4fe8 003e ecd6 f2be 3e6e aabe 5c0d 49bb
00000270: ea00 96be 82e8 c3be c73b 1c3d 41dd e8bd
00000280: d27b 99be 296a ddbc 854e 193e dabd 403c
00000290: 5241 343e 0137 eabe 29b2 8abe f315 0abe
000002a0: 2a52 a2be 8ad3 ffbe 9fc8 9bbe aa7a 6bbd
000002b0: c38c babd 8f88 c43d 85be 92be 3372 4abe
000002c0: b65d ad3c ef3b 2dbd deff f3bd 47a5 37be
000002d0: 326a 52bd b39f 253e 7f8c c53d 0b96 003e
000002e0: f364 ad3d c47c f43c 97b8 cbbd 177a 8c3e
000002f0: 8cdd 9f3e 0234 20bf b846 24bf 1f6f f1be
00000300: d5c2 f9be ae6c 3cbf 8be9 2dbf 72ed c0be
00000310: f6e5 d2be 4143 9bbe 584d 5bbd f85d afbe
00000320: cafc fcbd ca47 463e a21a c13d 0484 823e
00000330: ada2 fc3e c152 7d3e 66d0 fa3e 857e 063e
00000340: 07fe f73d 1fc0 da3c 3f1b 053e 2274 1b3d
00000350: d62c 703e 93ec b43e 4188 e73d 4e9f 093f
00000360: b83b 21bc d3e3 8cbe 77e1 92be 7c9c 12bd
00000370: 22cd f73d 08d0 cdbd 8417 ac3c 59d1 a4bd
00000380: ef67 473e 504c f5bd 51e5 97be bc4a 1dbe
00000390: 6e79 91bb 08c3 20bd 37e8 4fbd d9ec 4f3e
000003a0: f0d1 7f3e c81f 8a3d 5f93 cb3b 2f65 783c
000003b0: 346e f0bd 8a77 053d 4ce0 78bd b0a6 1bbd
000003c0: 1b54 653e 100d c1bc c0ce 783e 33f8 40be
000003d0: 729b 5dbe 1321 323d 11c9 82bd c107 fdbc
000003e0: 4263 0e3e 7277 2ebe 423d 8c3c fcdb 143e
000003f0: 6861 e7bc f2f7 c9bc e1c9 263d 2a4c 2bbe

0.bias f4 [16]
-0.02280035 -0.19197577 -0.048724473 -0.017988825 -0.11833322 0.09825981 0.14534166 -0.1411602
-0.121612705 0.011438927 -0.18071444 -0.15230252 0.040878527 0.0043836017 0.15692447 -0.16304545
00000000: cdc7 babc 4c95 44be 5093 47bd 4d5d 93bc
00000010: b058 f2bd 703c c93d 72d4 143e 4d8c 10be
00000020: 1510 f9bd 566a 3b3c 350d 39be 31f5 1bbe
00000030: 3e70 273d 51a4 8f3b cfb0 203e 63f5 26be

1.weight f4 [16]
2.201172 1.5398841 1.0041288 1.1165074 1.4457269 1.4417319 1.3271056 1.7051866
1.1056483 1.1304682 1.9754268 2.5817688 2.3217669 1.4144229 1.4789724 3.4619372
00000000: 01e0 0c40 ec1a c53f 4b87 803f b7e9 8e3f
00000010: 940d b93f ac8a b83f 99de a93f 8e43 da3f
00000020: e285 8d3f 2fb3 903f c9da fc3f b33b 2540
00000030: d497 1440 cf0b b53f f84e bd3f 6190 5d40

1.bias f4 [16]
0.28828996 0.36794075 -0.034842268 0.25632188 0.22070964 0.4035445 0.11395267 0.7600523
0.11364773 0.08730828 0.1551626 0.2818336 -0.040581226 1.0256994 -0.028677467 -0.097594835
00000000: be9a 933e bb62 bc3e c4b6 0ebd 9f3c 833e
00000010: b501 623e 629d ce3e 0460 e93d ca92 423f
00000020: 24c0 e83d afce b23d f2e2 1e3e 7e4c 903e
00000030: 8038 26bd 1e4a 833f 02ed eabc cddf c7bd

1.running_mean f4 [16]
0.166498 0.020459928 0.1508084 1.1027015 0.23163621 -0.6321858 -0.65776676 -1.1192397
-0.29182392 0.16240753 -1.2446971 -0.0146579025 -0.0076804333 1.7061219 0.17070939 -0.20686147
00000000: 747e 2a3e 949b a73c 846d 1a3e 5325 8d3f
00000010: 0b32 6d3e eed6 21bf 6763 28bf 3f43 8fbf
00000020: f269 95be 294e 263e 3c52 9fbf b327 70bc
00000030: 25ac fbbb 3462 da3f 71ce 2e3e 7ed3 53be

1.running_var f4 [16]
0.19168587 0.17360394 0.009949139 0.28021947 0.1438485 0.21573697 0.17022641 0.4481462
0.036805276 0.037515063 0.40578413 0.73881465 0.35950866 0.6334915 0.025090124 0.91540784
00000000: 4d49 443e 3bc5 313e b701 233c ed78 8f3e
00000010: 054d 133e 27ea 5c3e d54f 2e3e 6b73 e53e
00000020: 21c1 163d 65a9 193d f0c2 cf3e f522 3d3f
00000030: 8511 b83e 802c 223f ce89 cd3c 2b58 6a3f

3.weight f4 [16, 16, 4, 4]
0.03332059 -0.041562688 0.05852195 0.021130651 0.0015112173 -0.05657094 -0.030058777 -0.012232073
-0.035278887 -0.012850097 -0.07333681 0.043567885 -0.029700005 0.03410649 -0.01991456 0.068549946
-0.028650152 -0.03227225 -0.028678028 -0.10512832 -0.057541635 -0.08034798 -0.10675702 -0.031125523
-0.10138429 -0.10011813 -0.14595193 -0.08085835 -0.08789449 -0.14786321 -0.11221932 -0.058794715
0.055996824 -0.043081656 -0.039749578 -0.040350296 -0.0435047 0.008480908 0.03025056 0.003321491
0.04125576 0.035388205 0.03526257 0.05520781 -0.006736096 -0.008250512 -0.0017462071 -0.054006092
-0.015922386 0.01183989 -0.042680077 0.042558845 -0.015352807 -0.06000624 -0.0794516 -0.0040114084
0.012263527 0.040570173 -0.029616075 -0.050641354 -0.028978985 0.0033432944 0.002371359 -0.077460006
0.0458611 -0.041576732 -0.08575083 -0.054289248 0.051863253 0.021684753 -0.06432879 0.0068304436
0.0008125811 0.028318625 -0.055001885 -0.06451189 0.03820168 0.010933943 -0.029658187 -0.019467367
-0.11726664 -0.06397221 -0.00172447 -0.044012863 -0.016830109 0.031040428 0.06282568 -0.03986443
-0.06657243 -0.03768918 -0.05748249 0.032798685 -0.060527284 0.011093718 -0.0029364617 -0.06901835
-0.048556935 0.020852065 -0.0065515605 -0.080966726 -0.08485515 -0.07120942 -0.046213232 -0.0559654
-0.06672226 -0.08656405 -0.05630245 0.026962213 -0.05069204 0.007694603 -0.048299152 -0.0021258744
-0.1275703 -0.08673491 -0.07932981 -0.06393842 -0.16076685 0.007860939 -0.011210139 -0.06593151
-0.133872 -0.06290227 -0.106134005 -0.029154308 -0.09324657 -0.072889134 -0.019683987 -0.09733554
-0.011071861 0.047165167 0.011404706 -0.05266554 0.042765696 0.037547775 0.004909846 -0.0019988709
-0.010615047 -0.042264313 -0.03519823 -0.05003798 -0.0013362663 0.04573813 -0.025712855 -0.05259328
-0.073990814 0.031151984 0.048727907 -0.019218381 -0.011061903 -0.013807869 -0.03960805 0.02793131
0.013676385 0.0053993645 0.024777021 -0.0031442516 0.054051083 -0.05337765 -0.05243369 0.0014215634
0.020253628 0.09031972 0.06642642 -0.0067889695 -0.015559032 0.09191566 0.11219381 0.061423995
-0.013479131 0.009655478 0.069993 0.10752984 0.041955892 0.093246736 0.15495466 0.09254127
-0.14708401 -0.21832038 -0.13724568 -0.088334315 -0.18195006 -0.20440757 -0.2271112 -0.17945655
-0.114506446 -0.21578091 -0.19109918 -0.09552944 0.022913864 -0.088696666 -0.1542254 -0.114981905
-0.021410672 -0.086856455 -0.0052719084 -0.05087108 -0.071081415 -0.055220176 0.0232167 -0.043849323
-0.007049138 -0.05120529 0.0019449061 0.05490114 -0.06727899 -0.03068609 0.040063225 0.018357044
0.07473319 0.060466863 0.025699982 -0.09671003 0.03441429 0.025264213 -0.087680504 -0.13143174
0.052047785 0.08122253 -0.012738572 -0.14949945 0.02427524 0.07607796 -0.06937035 -0.14639945
-0.01427329 -0.028515223 -0.10038305 -0.06407543 -0.0023693568 -0.035604864 -0.07204383 -0.040782526
-0.046478912 -0.038088363 -0.0746809 -0.055199623 -0.0065510473 -0.024731245 0.018302662 -0.091669455
0.007126464 -0.011934379 0.03988534 -0.10433612 0.03164437 0.086289495 0.056076556 -0.00919091
-0.121027425 -0.025093103 0.004338778 -0.11405618 -0.005609432 -0.037711382 0.099617995 0.015558857
00000000: 2c7b 083d a33d 2abd b6b4 6f3d 301a ad3c
00000010: 0a14 c63a eeb6 67bd d33d f6bc 0869 48bc
00000020: 9880 10bd 3789 52bc 9c31 96bd 3d74 323d
00000030: 6d4d f3bc 3fb3 0b3d dc23 a3bc ea63 8c3d
00000040: b9b3 eabc e82f 04bd 2fee eabc 844d d7bd
00000050: c7b0 6bbd 7b8d a4bd 6da3 dabd f4fa febc
00000060: 91a2 cfbd bc0a cdbd 6c74 15be 1099 a5bd
00000070: 0702 b4bd 7469 17be 3ed3 e5bd bad2 70bd
00000080: ed5c 653d 6476 30bd 74d0 22bd 5a46 25bd
00000090: fc31 32bd 82f3 0a3c 06d0 f73c 5fad 593b
000000a0: cdfb 283d 39f3 103d 7c6f 103d 9621 623d
000000b0: 78ba dcbb 282d 07bc fde0 e4ba 7e35 5dbd
000000c0: aa6f 82bc 19fc 413c 4ed1 2ebd 2f52 2e3d
000000d0: 578a 7bbc 1ac9 75bd 85b7 a2bd 2272 83bb
000000e0: f6ec 483c e92c 263d 699d f2bc 4f6d 4fbd
000000f0: 5665 edbc 2c1b 5b3b cd68 1b3b 5aa3 9ebd
00000100: d9d8 3b3d 5d4c 2abd 229e afbd 675e 5ebd
00000110: 906e 543d 39a4 b13c d0be 83bd ead1 df3b
00000120: 6503 553a 76fc e73c a849 61bd cf1e 84bd
00000130: 5d79 1c3d 4824 333c baf5 f2bc 077a 9fbc
00000140: 7e29 f0bd dd03 83bd 9d07 e2ba d546 34bd
00000150: 4cdf 89bc 7f48 fe3c c0aa 803d e248 23bd
00000160: 2057 88bd f85f 1abd c272 6bbd ea57 063d
00000170: 75eb 77bd 6dc2 353c a771 40bb 7e59 8dbd
00000180: a3e3 46bd f3d1 aa3c 79ae d6bb e2d1 a5bd
00000190: 89c8 adbd 3fd6 91bd 164a 3dbd fa3b 65bd
000001a0: aea5 88bd 7e48 b1bd 669d 66bd dcdf dc3c
000001b0: 75a2 4fbd 0223 fc3b 55d5 45bd 4152 0bbb
000001c0: caa1 02be 13a2 b1bd ab77 a2bd 25f2 82bd
000001d0: 11a0 24be 2bcb 003c bbaa 37bc 1907 87bd
000001e0: be15 09be e8d2 80bd c95c d9bd 04d5 eebc
000001f0: 0ff8 bebd e646 95bd 5040 a1bc db57 c7bd
00000200: c066 35bc 4330 413d ceda 3a3c d2b7 57bd
00000210: 152b 2f3d b2cb 193d c6e2 a03b 7dff 02bb
00000220: bcea 2dbc 581d 2dbd 052c 10bd a0f4 4cbd
00000230: a825 afba e857 3b3d c4a3 d2bc 0d6c 57bd
00000240: 7f88 97bd 7232 ff3c ea96 473d de6f 9dbc
00000250: fc3c 35bc 663a 62bc 0d3c 22bd 34d0 e43c
00000260: eb12 603c 27ed b03b 2ef9 ca3c ca0f 4ebb
00000270: ab64 5d3d 86a2 5abd b5c4 56bd c153 ba3a
00000280: f0ea a53c 8cf9 b83d 930a 883d 0176 debb
00000290: 4feb 7ebc 473e bc3d dec5 e53d ba97 7b3d
000002a0: 93d7 5cbc 0332 1e3c 7d58 8f3d 9b38 dc3d
000002b0: f1d9 2b3d 25f8 be3d 6fac 1e3e 4786 bd3d
000002c0: 319d 16be 618f 5fbe 228a 0cbe 9fe8 b4bd
000002d0: 1e51 3abe 3850 51be d78f 68be 75c3 37be
000002e0: 5b82 eabd acf5 5cbe 81af 43be f0a4 c3bd
000002f0: dbb5 bb3c 99a6 b5bd 43ed 1dbe a27b ebbd
00000300: 6f65 afbc cce1 b1bd f9bf acbb 325e 50bd
00000310: 2293 91bd 8d2e 62bd f330 be3c 599b 33bd
00000320: 75fc e6bb a3bc 51bd 38ec fe3a 05e0 603d
00000330: 91c9 89bd 6561 fbbc 5619 243d 8361 963c
00000340: b70d 993d 1aac 773d c588 d23c e90f c6bd
00000350: 00f6 0c3d e5f6 ce3c d691 b3bd 0b96 06be
00000360: 0f30 553d ff57 a63d 72b5 50bc 6216 19be
00000370: dedc c63c c3ce 9b3d 0b12 8ebd bde9 15be
00000380: 84da 69bc c298 e9bc a195 cdbd fb39 83bd
00000390: 3647 1bbb 68d6 11bd b78b 93bd 940b 27bd
000003a0: ac60 3ebd 8b02 1cbd 4df2 98bd 0019 62bd
000003b0: 2baa d6bb 2e99 cabc 77ef 953c 32bd bbbd
000003c0: 1d85 e93b 6a88 43bc cf5e 233d 2dae d5bd
000003d0: 879d 013d 8cb8 b03d 88b0 653d 7895 16bc
000003e0: 3add f7bd 0d90 cdbc 4f2c 8e3b 4996 e9bd
000003f0: 53cf b7bb 4077 1abd 8504 cc3d 93ea 7e3c

3.bias f4 [16]
-0.018474627 0.008653399 -0.013716411 0.04913228 -0.061337426 0.027031472 -0.012639043 -0.05083189
-0.0121638505 -0.0002544826 0.004541024 0.013716479 0.046168312 -0.022491438 0.023810616 0.030030252
00000000: 1a58 97bc fcc6 0d3c ccba 60bc ee3e 493d
00000010: f43c 7bbd 1b71 dd3c fd13 4fbc 1a35 50bd
00000020: e34a 47bc 146c 85b9 dfcc 943b 15bb 603c
00000030: fc1a 3d3d f73f b8bc 7b0e c33c 0102 f63c

4.weight f4 [16]
1.353644 2.3749242 1.3219019 1.5691754 1.3058987 1.163901 2.541999 1.740072
2.33623 1.4699202 1.4591084 1.0089071 1.8687695 2.1834764 1.7529255 1.3712561
00000000: 3544 ad3f c2fe 1740 1534 a93f bdda c83f
00000010: b027 a73f b5fa 943f 1db0 2240 aeba de3f
00000020: cb84 1540 5826 bc3f 10c4 ba3f de23 813f
00000030: d733 ef3f 14be 0b40 dd5f e03f 5285 af3f

4.bias f4 [16]
0.10680099 0.12227857 0.49831444 0.4120261 -0.06280931 0.011792568 0.34566602 0.17524782
0.5683781 0.09805169 0.51413935 -0.014450302 0.6012933 0.27317557 0.43781185 0.15039885
00000000: 7aba da3d 306d fa3d 1223 ff3e 16f5 d23e
00000010: 2ba2 80bd 9d35 413c 23fb b03e 2a74 333e
00000020: 3a81 113f 53cf c83d a39e 033f f6c0 6cbc
00000030: 5cee 193f abdd 8b3e e028 e03e 2802 1a3e

4.running_mean f4 [16]
-2.601389 -1.057363 -1.5551519 -1.1657853 -0.9607837 0.6336538 -3.1868691 -0.811051
1.6082968 -0.38499337 -0.29496905 -0.10376095 -2.7151673 -0.510677 -0.11034408 -1.6658164
00000000: 287d 26c0 ac57 87bf 380f c7bf 7438 95bf
00000010: ecf5 75bf 2337 223f aaf5 4bc0 0aa1 4fbf
00000020: abdc cd3f da1d c5be 2f06 97be 9f80 d4bd
00000030: 4dc5 2dc0 babb 02bf 14fc e1bd 7939 d5bf

4.running_var f4 [16]
1.6123422 1.5497005 0.6856422 0.9976575 1.3577919 0.7608557 5.6057105 0.7144672
1.0783002 1.8541505 1.3416122 0.020806 2.3857691 2.178908 2.6995873 1.5418369
00000000: 3b61 ce3f 965c c63f 3f86 2f3f 7b66 7f3f
00000010: 20cc ad3f 70c7 423f fb61 b340 53e7 363f
00000020: be05 8a3f ce54 ed3f f3b9 ab3f 5871 aa3c
00000030: 71b0 1840 3b73 0b40 0ac6 2c40 e95a c53f

6.weight f4 [16, 16, 4, 4]
0.116896756 0.14412276 0.069072284 -0.015590426 0.13264668 0.10756618 -0.08352161 0.0031147534
-0.08958815 -0.1458007 -0.21100037 -0.14627856 0.050008174 -0.05741375 -0.07898133 -0.044802386
0.24127474 0.16876595 0.050052628 -0.24636094 0.13235159 0.37263373 0.06402083 -0.17996736
0.15608606 0.3201912 0.12812375 -0.07765833 0.20777991 0.28604886 0.07461548 -0.2221303
0.0068923146 -0.06773316 -0.09554688 -0.07156599 -0.06736092 -0.043885406 0.010618001 -0.029956374
-0.080983125 0.11035508 0.059802 0.11969048 0.07592497 0.27358124 0.2540812 0.13446489
0.33968732 0.27241153 0.19679615 0.035470363 0.28530297 0.2087225 0.01345728 -0.108891994
0.134853 -0.012771168 -0.080535665 -0.028722003 -0.26819584 -0.27131802 -0.22088164 -0.23451273
-0.16411419 -0.22184761 -0.23321354 -0.23612396 -0.119395986 -0.14474957 -0.18799779 -0.09932222
-0.09441096 -0.075274214 0.03179261 -0.044339277 -0.040059775 -0.04319758 0.037579503 -0.022537073
-0.018300135 0.1080463 0.074150644 -0.027741613 -0.0441861 -0.047531273 -0.10394323 -0.067456014
-0.009280069 -0.051741533 -0.009625738 0.030314675 -0.049313877 -0.013817128 -0.08616528 -0.099482544
-0.1402653 0.10282178 -0.009702444 -0.07432411 -0.26008084 -0.31737062 -0.12757961 -0.22922723
-0.2237112 -0.5026698 -0.05397159 0.09133455 -0.24056782 -0.40732127 -0.106125794 0.033395536
0.4875803 0.28371263 0.16882727 0.09705901 0.2970262 0.14059031 -0.012785071 0.09217308
-0.015100517 0.030345144 -0.14255032 -0.021464698 -0.12810765 -0.054984648 -0.09110564 0.0658943
0.19192323 0.1262272 -0.030911556 -0.19067825 0.055126514 -0.11751976 -0.177313 -0.3655944
0.036385924 -0.21776848 -0.2661476 -0.3136093 0.078335226 -0.298512 -0.3032466 -0.027613578
-0.20058468 -0.054879323 0.11746441 -0.07674914 -0.15949531 -0.029866077 0.06715647 -0.08906828
-0.07074941 0.061736725 0.010390365 -0.1149909 0.0922691 0.22494654 0.15943687 -0.049537417
-0.059197217 -0.14985771 -0.19599494 -0.1022254 0.08285446 -0.13074957 -0.13208732 -0.079640836
-0.17915834 -0.13678889 -0.10896958 -0.002973324 -0.12105036 -0.12996753 -0.016301287 0.021606378
0.0061600422 0.045978855 -0.026768157 0.049845625 0.04237626 0.0018355807 0.04823382 0.018132772
-0.0026717007 0.03324457 0.0269541 0.03334909 -0.039481327 0.051319882 0.0101989135 0.04484078
-0.23257111 -0.24445562 -0.16588604 -0.22143227 -0.08771206 -0.0863565 -0.017567625 -0.11461834
-0.19350569 -0.019103108 -0.10192572 -0.122420155 0.1094636 0.31275988 0.26782227 0.06859679
-0.15669926 -0.112624496 -0.015069292 0.19542114 -0.19186324 0.055630796 0.038293853 0.12493231
-0.10039193 -0.17536443 -0.16425627 -0.20843124 0.015363957 0.15384802 -0.050011635 -0.24223177
-0.042102095 0.022022719 0.23767596 0.004385558 -0.11272993 -0.09243033 0.023000622 -0.002680217
0.07051009 0.12975882 0.064406335 -0.09892867 -0.048679464 -0.04477424 -0.07597525 -0.018834705
0.13446915 0.024328576 -0.08537634 -0.070071295 0.050966423 -0.07516658 -0.06379804 -0.0735736
-0.022564411 -0.23968436 -0.09558139 0.032250747 0.0054798145 -0.17866755 -0.04008379 0.100350596
00000000: 9167 ef3d eb94 133e c575 8d3d fc6e 7fbc
00000010: 88d4 073e a84b dc3d 610d abbd e420 4c3b
00000020: fe79 b7bd c74c 15be 7b10 58be 0cca 15be
00000030: 5fd5 4c3d ae2a 6bbd f7c0 a1bd b582 37bd
00000040: ba10 773e fbd0 2c3e fc03 4d3d 0b46 7cbe
00000050: 2d87 073e d9c9 be3e 5a1d 833d 5d49 38be
00000060: 06d5 1f3e 1af0 a33e df32 033e 550b 9fbd
00000070: 42c4 543e ff74 923e 00d0 983d 2076 63be
00000080: edd8 e13b afb7 8abd 15ae c3bd 3191 92bd
00000090: 86f4 89bd 2fc1 33bd 20f7 2d3c 1267 f5bc
000000a0: 7bda a5bd d801 e23d f1f2 743d 4820 f53d
000000b0: 8d7e 9b3d d712 8c3e ee16 823e 2ab1 093e
000000c0: 7feb ad3e 8679 8b3e ee84 493e 5f49 113d
000000d0: 3b13 923e 5abb 553e ec7b 5c3c c402 dfbd
000000e0: e816 0a3e 293e 51bc e2ef a4bd 684a ebbc
000000f0: f750 89be 32ea 8abe cc2e 62be 1b24 70be
00000100: 8d0d 28be 052c 63be 88cf 6ebe 7bca 71be
00000110: e285 f4bd 3b39 14be 7e82 40be 7369 cbbd
00000120: 895a c1bd 5e29 9abd f838 023d 1a9d 35bd
00000130: b815 24bd f2ef 30bd f7ec 193d ab9f b8bc
00000140: 2aea 95bc 6147 dd3d 4bdc 973d 6142 e3bc
00000150: 7cfc 34bd 27b0 42bd 30e0 d4bd 6126 8abd
00000160: 6e0b 18bc eeee 53bd 45b5 1dbc 7b56 f83c
00000170: 59fd 49bd 3c61 62bc 6c77 b0bd 81bd cbbd
00000180: b5a1 0fbe 3a94 d23d 00f7 1ebc 3d37 98bd
00000190: 5129 85be 677e a2be 3ba4 02be 8bba 6abe
000001a0: 8c14 65be f8ae 00bf 5011 5dbd 9c0d bb3d
000001b0: 6957 76be 6a8c d0be 7b58 d9bd c2c9 083d
000001c0: 20a4 f93e c842 913e 0ee1 2c3e e0c6 c63d
000001d0: d113 983e e8f6 0f3e 7978 51bc 3dc5 bc3d
000001e0: 2968 77bc 6196 f83c b6f8 11be bcd6 afbc
000001f0: a72e 03be 9537 61bd 9895 babd 97f3 863d
00000200: 8687 443e b441 013e 3b3a fdbc 2941 43be
00000210: 57cc 613d 33ae f0bd 8a91 35be 302f bbbe
00000220: 6809 153d b3fe 5ebe 8044 88be 6691 a0be
00000230: 386e a03d 91d6 98be 2343 9bbe df35 e2bc
00000240: 1266 4dbe 24c9 60bd 2e91 f03d a72e 9dbd
00000250: bd52 23be b4a9 f4bc 5589 893d 6e69 b6bd
00000260: 11e5 90bd a6df 7c3d 593c 2a3c 5980 ebbd
00000270: 95f7 bc3d 6358 663e 6b43 233e bfe7 4abd
00000280: c878 72bd 4d74 19be e6b2 48be 8d5b d1bd
00000290: 99af a93d 37e3 05be e641 07be bc1a a3bd
000002a0: 4975 37be 6312 0cbe 712b dfbd 19dc 42bb
000002b0: 40e9 f7bd 3516 05be 478a 85bc dcff b03c
000002c0: 2eda c93b 5354 3c3d e548 dbbc ed2a 4c3d
000002d0: bb92 2d3d de97 f03a d390 453d 2e8b 943c
000002e0: b317 2fbb 752b 083d d8ce dc3c 0e99 083d
000002f0: 2cb7 21bd cc34 523d 5819 273c f7aa 373d
00000300: 1f27 6ebe 9352 7abe 08de 29be 24bf 62be
00000310: 61a2 b3bd addb b0bd fbe9 8fbc 05bd eabd
00000320: 5b26 46be 1f7e 9cbc 6fbe d0bd 6bb7 fabd
00000330: 742e e03d 1022 a03e 0020 893e 797c 8c3d
00000340: c575 20be aca7 e6bd 31e5 76bc 7b1c 483e
00000350: cc77 44be 1edd 633d 04da 1c3d 83dc ff3d
00000360: 499a cdbd bc92 33be cc32 28be 006f 55be
00000370: 1bb9 7b3c 568a 1d3e 00d9 4cbd 9b0b 78be
00000380: 3f73 2cbd fd68 b43c 5461 733e bab4 8f3b
00000390: f3de e6bd 1d4c bdbd cd6b bc3c 94a6 2fbb
000003a0: 9867 903d 7fdf 043e 78e7 833d 1d9b cabd
000003b0: 1e64 47bd 3265 37bd e998 9bbd 3d4b 9abc
000003c0: 48b2 093e b94c c73c cad9 aebd 8a81 8fbd
000003d0: 2bc2 503d f0f0 99bd 8ca8 82bd c1ad 96bd
000003e0: 00d9 b8bc d16f 75be 2dc0 c3bd 5c19 043d
000003f0: 0490 b33b a0f4 36be e62e 24bd 9d84 cd3d

6.bias f4 [16]
-0.05796736 -0.062276628 0.049774628 0.042949513 0.018325994 0.020032603 -0.025278486 -0.05796368
-0.06242202 0.021190217 -0.028852101 -0.04319188 -0.034306806 -0.021067522 -0.035594184 -0.027984615
00000000: 2f6f 6dbd c715 7fbd 7be0 4b3d d4eb 2f3d
00000010: 6520 963c 6a1b a43c d414 cfbc 536b 6dbd
00000020: 3bae 7fbd 1b97 ad3c 3e5b ecbc f8e9 30bd
00000030: 4b85 0cbd cc95 acbc 35cb 11bd fe3f e5bc

7.weight f4 [16]
1.9170794 2.020798 1.567504 1.8190356 1.9214454 2.1037576 1.9435674 1.8461512
1.9928285 1.2290598 1.6115266 1.6926097 1.5390241 1.4589102 1.842683 1.4374354
00000000: dc62 f53f c154 0140 f9a3 c83f 29d6 e83f
00000010: ecf1 f53f f7a3 0640 d1c6 f83f af4e ec3f
00000020: 0115 ff3f d551 9d3f 8146 ce3f 6fa7 d83f
00000030: befe c43f 92bd ba3f 09dd eb3f e2fd b73f

7.bias f4 [16]
-0.2696876 -0.10931841 0.03582486 -0.17332369 -0.35784182 -0.41693422 -0.109135486 -0.30512157
-0.124006495 0.27926484 -0.20793395 -0.36587316 0.0678151 0.06679618 -0.24222754 -0.13673548
00000000: 7e14 8abe 55e2 dfbd 17bd 123d c47b 31be
00000010: 0b37 b7be 6778 d5be 6d82 dfbd e538 9cbe
00000020: 1ef7 fdbd cdfb 8e3e a3ec 54be ba53 bbbe
00000030: a5e2 8a3d 70cc 883d 7f0a 78be 6304 0cbe

7.running_mean f4 [16]
-3.553533 -1.022054 1.6036386 -2.9929156 2.0271325 1.5603395 -1.2775633 1.9441147
-0.33604527 -3.018929 -2.4246502 2.1192303 -1.832187 -1.1604456 -2.0353339 1.522554
00000000: 166d 63c0 aad2 82bf 0844 cd3f ee8b 3fc0
00000010: 8abc 0140 34b9 c73f 3287 a3bf c0d8 f83f
00000020: 200e acbe 2236 41c0 782d 1bc0 78a1 0740
00000030: 1b85 eabf 7b89 94bf e942 02c0 0de3 c23f

7.running_var f4 [16]
3.604008 2.4909043 2.729106 2.8577535 3.2822058 2.52599 2.1984384 2.3290303
2.1629424 2.3018935 4.052414 3.606281 2.2492092 2.3464139 2.1483512 1.411532
00000000: 11a8 6640 fa6a 1f40 aca9 2e40 6fe5 3640
00000010: a90f 5240 d2a9 2140 37b3 0c40 d50e 1540
00000020: a66d 0a40 3952 1340 60ad 8140 4fcd 6640
00000030: 0bf3 0f40 a52b 1640 967e 0940 15ad b43f

10.odefunc.fc1.weight f4 [16, 784]
0.03522987 0.028011002 0.039419115 -0.040906582 -0.045060202 -0.11862635 0.004233344 -0.0031772319
0.10299284 -0.00011178519 -0.0739328 -0.086769626 -0.023249362 -0.018253988 -0.07094679 0.05311747
-0.047964294 -0.045457512 -0.05350313 0.103283726 0.079120845 -0.0022591115 0.026366016 -0.0005303013
-0.06756448 0.061683066 0.04429347 0.06475279 -0.0065680235 -0.065162 0.014283056 0.102831356
0.1062948 0.09061515 0.012947391 -0.038239017 -0.0006186219 0.08272834 -0.062431872 0.021530917
0.018563354 0.10300026 -0.0137185985 -0.104482934 0.03146607 0.03428533 -0.02401333 0.008706503
0.1267059 -0.11384451 -0.07756299 -0.00057500525 0.041596398 -0.010091597 0.02874065 0.10582958
-0.08092476 -0.057348225 -0.040640764 -0.07077463 -0.0051968796 0.0075047608 0.07077418 -0.01654451
0.015446716 -0.08148025 -0.05242346 -0.049237907 0.01023301 -0.0006038059 0.034559086 0.03679281
0.027445635 -0.057218816 -0.04755868 0.04934434 0.0072388225 0.04595619 0.053503428 0.031747274
-0.013932735 0.015342484 0.03313643 0.005313772 0.13371901 0.08520598 0.04873179 0.14903894
0.06629183 0.020398222 -0.027915206 0.104814894 0.08832869 0.018251564 0.118939266 0.043334827
-0.024862994 -0.10352893 -0.044863492 0.0014021466 -0.033807226 -0.06855595 -0.04104871 -0.055141564
0.05174734 0.018693168 -0.05773333 -0.013331376 -0.02658472 -0.04252226 0.049240213 0.010260221
0.009379018 -0.0074461172 -0.023808 0.12703712 0.17192087 -0.005733968 -0.0640147 0.056733143
-0.020873642 0.029408706 0.046798266 0.091883965 -0.049039777 0.0009857174 0.14820921 -0.07464655
-0.12566179 -0.12640823 -0.12237583 -0.09590612 -0.06843328 0.18309656 -0.020486945 -0.03591841
-0.15453313 -0.09886213 -0.07502401 -0.006729224 0.093969405 -0.03508255 0.077280596 -0.029647537
0.06830864 0.10256881 0.12566999 0.05527722 -0.028407125 0.02055644 0.011400358 0.0883222
0.03258775 -0.0027333442 -0.05676889 -0.12341692 -0.08805639 0.11051546 0.11292362 0.0723581
-0.08055973 -0.023582196 -0.03536159 0.0046917074 0.06022448 0.083078064 0.016844766 -0.063096926
0.047039494 -0.08836212 0.05495037 0.026004802 -0.015399471 -0.06611226 -0.10339036 -0.082562685
-0.09868081 -0.03388282 -0.00094872125 -0.21443768 -0.06383794 -0.13356659 0.020823564 -0.054142598
-0.1077445 -0.10408155 -0.07011204 -0.09921119 -0.039433684 0.02004437 -0.016461877 -0.016576106
-0.053949997 -0.013061324 -0.082872845 -0.08082927 0.00896192 0.017569097 -0.018518649 -0.0043412414
-0.052713532 -0.027375815 -0.048772372 0.08372974 -0.006471501 -0.04989732 0.013354424 -0.011105903
-0.08410881 -0.068721585 -0.024408527 -0.08560988 0.049339376 -0.07719779 -0.09891809 -0.04109632
-0.03875316 0.059201207 0.019928502 -0.037985392 0.072662905 -0.0347747 0.032704026 -0.012062866
-0.023761366 -0.060689118 -0.00885917 0.020282462 -0.017589452 -0.05298027 -0.017119972 -0.1276623
-0.048145097 0.023309678 0.026628869 0.05330843 -0.05163819 -0.0910255 -0.11898266 -0.031073313
0.06186544 -0.034382932 -0.012487737 0.028687857 -0.043907616 -0.011206845 -0.039778348 -0.044514228
-0.02315672 0.0025857848 -0.023384914 0.030691363 -0.10646851 -0.062607095 -0.06312461 -0.024344807
00000000: 324d 103d 5477 e53c f075 213d a98d 27bd
00000010: 0c91 38bd 5ff2 f2bd ddb7 8a3b 1b39 50bb
00000020: e9ed d23d 386e eab8 146a 97bd 46b4 b1bd
00000030: 7275 bebc 6389 95bc 8d4c 91bd b491 593d
00000040: 3576 44bd a831 3abd 1926 5bbd 6b86 d33d
00000050: 1c0a a23d 9a0d 14bb 8bfd d73c eb03 0bba
00000060: 3f5f 8abd 62a7 7c3d 126d 353d 1c9d 843d
00000070: 9338 d7bb a873 85bd 7b03 6a3c 3f99 d23d
00000080: 17b1 d93d 7094 b93d 4b21 543c 84a0 1cbd
00000090: 032b 22ba 7a6d a93d 90b8 7fbd 9b61 b03c
000000a0: 2d12 983c cdf1 d23d f9c3 60bc 26fb d5bd
000000b0: 91e2 003d c66e 0c3d 9ab7 c4bc b8a5 0e3c
000000c0: 31bf 013e 4f27 e9bd 58d9 9ebd f3bb 16ba
000000d0: fc60 2a3d 3a57 25bc 8371 eb3c 2ebd d83d
000000e0: e1bb a5bd f9e5 6abd ee76 26bd 4af2 90bd
000000f0: 964a aabb 7fea f53b 0ef2 903d 5a88 87bc
00000100: 3914 7d3c 1edf a6bd fbb9 56bd b0ad 49bd
00000110: 5ba8 273c ba48 1eba d48d 0d3d 0fb4 163d
00000120: abd5 e03c 475e 6abd e4cc 42bd 4a1d 4a3d
00000130: a533 ed3b 8f3c 3c3d 6926 5b3d 6e09 023d
00000140: 2046 64bc 0b5f 7b3c 11ba 073d 261f ae3b
00000150: a3ed 083e 7980 ae3d fc9a 473d aa9d 183e
00000160: 03c4 873d 2c1a a73c 6eae e4bc 31a9 d63d
00000170: ace5 b43d 4e84 953c 6e96 f33d dc7f 313d
00000180: 7aad cbbc fa06 d4bd c8c2 37bd 3cc8 b73a
00000190: 7279 0abd 1067 8cbd b122 28bd 1fdc 61bd
000001a0: 05f5 533d 6a22 993c c979 6cbd d86b 5abc
000001b0: 33c8 d9bc d22b 2ebd 1bb0 493d 7c1a 283c
000001c0: 74aa 193c 8ffe f3bb ff08 c3bc 0516 023e
000001d0: 060c 303e 03e4 bbbb 241a 83bd 0361 683d
000001e0: 33ff aabc 87ea f03c 8aaf 3f3d a92d bc3d
000001f0: efdd 48bd 3033 813a 28c4 173e 4ae0 98bd
00000200: 7cad 00be 2971 01be 2ea0 fabd 6e6a c4bd
00000210: bf26 8cbd aa7d 3b3e 3dd4 a7bc 2f1f 13bd
00000220: ef3d 1ebe 3a78 cabd 30a6 99bd d380 dcbb
00000230: 0873 c03d b8b2 0fbd 4a45 9e3d 64df f2bc
00000240: 66e5 8b3d 990f d23d a2af 003e 5e6a 623d
00000250: 0fb6 e8bc fb65 a83c 91c8 3a3c 45e2 b43d
00000260: bc7a 053d e821 33bb 7f86 68bd 03c2 fcbd
00000270: e956 b4bd ee55 e23d 8044 e73d 7c30 943d
00000280: 80fc a4bd 732f c1bc 51d7 10bd e5bc 993b
00000290: f2ad 763d d524 aa3d 09fe 893c f638 81bd
000002a0: 7cac 403d 33f7 b4bd a413 613d 0608 d53c
000002b0: 104e 7cbc dd65 87bd 53be d3bd a016 a9bd
000002c0: 2a19 cabd b6c8 0abd 9bb3 78ba 8d95 5bbe
000002d0: 77bd 82bd aec5 08be 2e96 aa3c a1c4 5dbd
000002e0: 26a9 dcbd b528 d5bd e796 8fbd 3d2f cbbd
000002f0: 3785 21bd 1734 a43c 0fdb 86bc 9dca 87bc
00000300: acfa 5cbd 2aff 55bc 3db9 a9bd d189 a5bd
00000310: 04d5 123c 11ed 8f3c 6cb4 97bc f940 8ebb
00000320: 25ea 57bd 3f43 e0bc 8ac5 47bd 7f7a ab3d
00000330: e30e d4bb 2261 4cbd 84cc 5a3c 89f5 35bc
00000340: 3d41 acbd e7bd 8cbd 64f4 c7bc 3c54 afbd
00000350: 1618 4a3d e019 9ebd 9195 cabd 9d54 28bd
00000360: a2bb 1ebd f77c 723d 1941 a33c 9296 1bbd
00000370: 4ad0 943d ea6f 0ebd a8f4 053d 54a3 45bc
00000380: 32a7 c2bc 2795 78bd 0d26 11bc 6827 a63c
00000390: c117 90bc d701 59bd 2f3f 8cbc e8b9 02be
000003a0: cb33 45bd f0f3 be3c c924 da3c f159 5a3d
000003b0: 9182 53bd 946b babd 2ead f3bd 768d febc
000003c0: 9e66 7d3d 1ed5 0cbd 5e99 4cbc cc02 eb3c
000003d0: 79d8 33bd ea9c 37bc 9fee 22bd 8d54 36bd
000003e0: 29b3 bdbc 4576 293b b891 bfbc 746c fb3c
000003f0: 2a0c dabd 2638 80bd 7a47 81bd c36e c7bc

10.odefunc.fc1.bias f4 [16]
0.0667495 -0.04851037 -0.09368752 -0.0014329982 0.001895865 -0.013364342 0.120295435 -0.11716143
0.03210187 0.12889624 0.16466598 -0.10462132 0.028522205 0.09516253 0.030051628 -0.06974486
00000000: f6b3 883d cfb2 46bd 3edf bfbd 71d3 bbba
00000010: ac7e f83a 1df6 5abc 745d f63d 55f2 efbd
00000020: 407d 033d 60fd 033e 339e 283e b443 d6bd
00000030: 66a7 e93c 93e4 c23d d52e f63c 65d6 8ebd

10.odefunc.fc2.weight f4 [784, 16]
0.24380296 -0.083448865 -0.026473105 -0.13548939 0.25318778 -0.15130797 0.050584745 0.19360565
-0.16657202 -0.17843063 0.11763787 -0.22192013 0.13173659 -0.13047127 -0.09669856 -0.057858907
-0.13929023 -0.18393482 0.04535858 -0.024867993 -0.15620807 -0.1574662 0.11746526 -0.071916535
-0.029204348 0.0818331 -0.09951308 0.098813064 0.22050835 0.16069333 0.09506067 0.062605515
0.24785385 -0.06435098 0.17446819 -0.24079515 0.03754262 -0.045161337 -0.036696993 -0.1768228
-0.15454763 -0.11288713 -0.018824058 -0.1507302 0.20759709 -0.16541243 -0.13843483 -0.100391164
0.13939072 0.016706731 -0.048141066 -0.18152803 -0.007334658 -0.008394856 -0.07372417 -0.22360837
-0.12811978 0.17202786 0.042818356 0.086041585 0.046706878 -0.15701416 -0.015377416 -0.012787363
-0.07516669 0.18882604 -0.09023507 -0.052236736 -0.21989939 0.22142816 -0.1212236 0.07128601
0.22142075 0.041014846 -0.0100841625 -0.20065638 -0.008425991 0.23250934 -0.018508878 -0.08637225
0.055696283 -0.15734573 -0.116923355 -0.24180587 -0.16315737 -0.0370271 -0.22798528 0.112283364
-0.12839207 -0.013661491 0.15712948 0.0015793253 0.21371284 -0.110364795 0.0860674 -0.020288726
0.020976953 0.10348561 0.1359115 -0.21279408 0.11937674 0.08664788 0.19224277 0.14443554
0.17961818 -0.097799584 -0.16365051 -0.12743098 -0.14443636 0.065276325 0.21934108 -0.0712455
0.13073674 -0.11250213 0.24890672 -0.15943971 -0.15626241 -0.10691217 -0.04048834 0.02050245
0.15258867 -0.23271911 -0.08467035 0.20973614 0.011698984 0.14422844 -0.10547614 0.057634957
0.030157998 0.11254095 -0.19992647 0.101590686 0.10482357 -0.01678229 0.09428342 0.026503997
0.18329509 0.020371258 -0.24635513 0.18544905 0.030630697 -0.094975896 0.12831491 0.14429218
-0.06953949 0.11956273 -0.16106245 -0.10791357 0.17283684 0.03819862 -0.16843955 0.001585616
-0.025506511 0.114078194 0.20220184 -0.004040484 0.1742812 0.17817803 -0.11023186 0.2341577
0.06790494 0.23121326 0.15642987 0.17915463 0.08621062 0.2242526 0.062027913 -0.20739628
0.16159226 0.17623879 0.11082077 0.24140702 -0.058890738 -0.21331502 -0.16496737 -0.1776142
0.075936414 -0.028825715 -0.050376948 -0.18032286 -0.05871235 -0.12003478 0.12839077 0.19145055
-0.20383376 -0.15012808 -0.07100526 -0.11696294 -0.21402563 0.2569344 0.23473495 -0.16510065
-0.21376148 0.08117131 -0.14084263 0.20231654 -0.21215926 -0.091201775 0.18481468 0.0914087
0.20562962 -0.032016303 -0.0066067306 0.12442057 0.18673266 -0.0689232 0.16848859 0.11690344
0.23247252 -0.1448406 -0.14806011 -0.15827508 -0.13926937 0.12236545 0.15220894 -0.22024377
-0.07020778 -0.09558677 0.04541706 0.12554242 -0.016305597 -0.055994388 0.045083676 -0.17696626
0.14272708 0.082134694 0.22254063 -0.12558149 -0.07726917 -0.048722833 0.23765762 -0.17966883
0.029412784 0.04123178 -0.025273453 -0.023365872 -0.114969015 -0.06263936 0.21614833 -0.1710825
0.02204907 -0.08398561 0.05597218 -0.24257971 0.15077035 0.031311303 0.21573924 -0.053098224
0.07209301 -0.18678091 0.05035698 0.062268075 -0.23972368 -0.2407007 0.1632025 0.17955725
00000000: 7ca7 793e 3de7 aabd 20de d8bc bbbd 0abe
00000010: d4a1 813e 7af0 1abe f331 4f3d 8f40 463e
00000020: db91 2abe 85b6 36be 20ec f03d 083f 63be
00000030: f5e5 063e 439a 05be e509 c6bd 76fd 6cbd
00000040: 19a2 0ebe 6959 3cbe ebc9 393d f6b7 cbbc
00000050: 02f5 1fbe d23e 21be a091 f03d fa48 93bd
00000060: f53d efbc 1d98 a73d 84cd cbbd 815e ca3d
00000070: f1cc 613e cb8c 243e 2baf c23d 5237 803d
00000080: 66cd 7d3e 72ca 83bd caa7 323e 0193 76be
00000090: 4ac6 193d 18fb 38bd 964f 16bd 0911 35be
000000a0: bc41 1ebe 5e31 e7bd e934 9abc 0459 1abe
000000b0: 5594 543e e061 29be dcc1 0dbe e299 cdbd
000000c0: 71bc 0e3e 8edc 883c 912f 45bd 7ce2 39be
000000d0: 9257 f0bb 948a 09bc b3fc 96bd 98f9 64be
000000e0: d531 03be 1228 303e 4d62 2f3d 9236 b03d
000000f0: b64f 3f3d 52c8 20be 8ff1 7bbc 1682 51bc
00000100: fef0 99bd 9d5b 413e 2acd b8bd 30f6 55bd
00000110: 4e2d 61be 10be 623e 1444 f8bd 66fe 913d
00000120: 1fbc 623e 2fff 273d 0b38 25bc de78 4dbe
00000130: 2b0d 0abc ee16 6e3e ee9f 97bc efe3 b0bd
00000140: c921 643d 3d1f 21be 8375 efbd f59b 77be
00000150: ba12 27be baa9 17bd f974 69be d2f4 e53d
00000160: 3679 03be 72d4 5fbc 8de6 203e 5d01 cf3a
00000170: 8ad7 5a3e f006 e2bd 1b44 b03d 8b34 a6bc
00000180: dcd7 ab3c 43f0 d33d 622c 0b3e b1e6 59be
00000190: cb7b f43d 7274 b13d 4adb 443e e9e6 133e
000001a0: d4ed 373e 264b c8bd 0094 27be 447d 02be
000001b0: 20e7 13be 98af 853d f39a 603e 29e9 91bd
000001c0: dadf 053e 8467 e6bd 67e1 7e3e 2a44 23be
000001d0: 4103 20be c5f4 dabd 1ad7 25bd c1f4 a73c
000001e0: 3440 1c3e eb4d 6ebe a667 adbd 12c5 563e
000001f0: 18ad 3f3c 9fb0 133e e003 d8bd a212 6c3d
00000200: e80d f73c df7b e63d 86b9 4cbe c70e d03d
00000210: bdad d63d 037b 89bc aa17 c13d e91e d93c
00000220: b5b1 3b3e a0e1 a63c 8544 7cbe 5be6 3d3e
00000230: 3aed fa3c b982 c2bd fc64 033e 54c1 133e
00000240: b86a 8ebd 4edd f43d 8eed 24be ca01 ddbd
00000250: 24fc 303e 2876 1c3d 6b7b 2cbe 72d4 cf3a
00000260: 08f3 d0bc d4a1 e93d 000e 4f3e 0966 84bb
00000270: c576 323e 4d74 363e 3ec1 e1bd 09c7 6f3e
00000280: bf11 8b3d 2bc3 6c3e 272f 203e 5074 373e
00000290: 328f b03d 79a2 653e fb10 7e3d b15f 54be
000002a0: 7178 253e f177 343e 00f6 e23d 6733 773e
000002b0: 6a37 71bd 416f 5abe 35ed 28be 7fe0 35be
000002c0: 8d84 9b3d e823 ecbc 0f58 4ebd 8ea6 38be
000002d0: 5c7c 70bd cbd4 f5bd df78 033e 9d0b 443e
000002e0: ccb9 50be 2dbb 19be 356b 91bd 448a efbd
000002f0: 8929 5bbe e88c 833e 5c5e 703e 2510 29be
00000300: 4ae4 5abe 253d a63d 0d39 10be 112c 4f3e
00000310: 4740 59be ffc7 babd 0f40 3d3e 7c34 bb3d
00000320: 9290 523e 8723 03bd 467d d8bb 36d0 fe3d
00000330: d936 3f3e 9b27 8dbd 4688 2c3e 126b ef3d
00000340: 470d 6e3e 1851 14be 129d 17be dd12 22be
00000350: a19c 0ebe bd9a fa3d a9dc 1b3e 9587 61be
00000360: 19c9 8fbd ffc2 c3bd 3d07 3a3d 318e 003e
00000370: 5193 85bc 5f5a 65bd a9a9 383d a536 35be
00000380: 0c27 123e 3c36 a83d b1e1 633e 6f98 00be
00000390: 4c3f 9ebd 9891 47bd 855c 733e 1bfb 37be
000003a0: 14f3 f03c a8e2 283d 460a cfbc c969 bfbc
000003b0: e074 ebbd 1149 80bd fd55 5d3e 4030 2fbe
000003c0: 40a0 b43c a600 acbd 1643 653d d166 78be
000003d0: 8b63 1a3e 4840 003d bfea 5c3e 867d 59bd
000003e0: 80a5 933d 7f43 3fbe 1f43 4e3d cf0c 7f3d
000003f0: 207a 75be 3f7a 76be 8e1e 273e dbdd 373e

10.odefunc.fc2.bias f4 [784]
-0.18819095 -0.12906913 0.060629692 -0.017572679 -0.09864296 0.03602713 -0.18123706 -0.06844176
-0.0077928076 0.007365357 -0.08778647 -0.086494714 0.001994035 -0.048291113 -0.033372194 -0.02361446
-0.03511972 -0.03815756 -0.09638267 0.010609204 0.018799547 0.059571438 0.06395246 -0.12869993
0.039405923 -0.09284811 -0.034644574 -0.07853408 -0.14480163 -0.1829106 -0.22915347 -0.0017052114
0.032199934 -0.20922382 -0.15620403 -0.07693105 0.050463967 0.0111244125 -0.2228325 -0.20799577
-0.12779263 -0.060423348 -0.07441413 -0.27558935 -0.2574393 -0.24633648 -0.08472385 -0.14200205
-0.052392833 0.060960215 -0.06889901 -0.012943685 -0.18038706 -0.18297563 0.07761317 -0.03748818
-0.03510269 -0.13065921 0.026986023 -0.028758995 -0.12334194 -0.0068663857 0.019876393 -0.055109818
-0.023635775 -0.22770752 -0.20096259 -0.20965573 -0.18137945 -0.028458975 -0.16312942 -0.06593136
-0.15960412 -0.25303563 -0.1800009 0.071502 -0.030889357 -0.035829592 -0.0047715115 0.030102594
0.058620412 -0.18920514 -0.11583185 -0.02168355 -0.20698357 -0.17813505 -0.1706032 -0.05920459
-0.07632913 0.024741925 -0.1685464 -0.1289928 -0.09861482 -0.11600556 -0.14060384 0.070258476
-0.16799982 -0.21134321 -0.19920017 -0.24908803 -0.23001742 -0.19843668 0.020923652 -0.09676365
-0.11689849 -0.021483673 -0.15931344 -0.25530723 -0.22133073 -0.21324705 -0.12643686 -0.17457166
-0.20075698 -0.30843458 -0.22276561 -0.02164129 0.017695118 -0.23870924 -0.05386198 0.013618559
-0.14510693 -0.038929187 -0.08172588 -0.035036195 -0.14179446 -0.23350441 0.087016605 -0.16777001
-0.19319274 0.050413806 -0.019200202 0.030840432 -0.06332153 -0.024487048 0.012412406 -0.13934669
-0.13040064 0.050415885 -0.13961098 -0.10006483 -0.2257361 -0.17607993 -0.13877325 0.072381176
0.079028755 -0.10570801 -0.27955464 -0.096340954 -0.016468197 -0.21865496 -0.1287828 -0.12723209
-0.25233257 0.014205001 -0.17052205 -0.12598243 0.03293053 -0.16574383 0.103651665 -0.1736073
-0.0761004 0.06492426 -0.09141694 0.04515878 -0.005165583 -0.1813421 0.034757566 -0.032473054
0.027808392 0.09840598 -0.18378533 0.06754706 -0.054079514 -0.010834237 0.006487817 0.028580604
0.05605291 0.03522439 -0.089947365 -0.14278309 -0.07305952 -0.056098945 -0.11379652 -0.14151426
-0.16902235 -0.12271333 0.007520205 0.050521594 -0.005476678 0.014032303 -0.106648855 -0.18571801
-0.045245096 -0.16639732 -0.055891614 -0.18138823 0.038568474 -0.13521446 0.022793766 -0.16827303
-0.03134414 -0.01050354 -0.08117973 0.092270546 -0.20394127 -0.13533375 0.011914759 -0.17714077
-0.16316059 0.04944317 0.07344999 -0.13491918 0.10132287 0.10172391 -0.056270305 -0.18351312
0.06417158 -0.17857233 0.018788388 0.114813894 0.019970683 -0.12991087 -0.06676434 -0.037843
-0.057735875 0.029753609 -0.06619916 -0.109533116 -0.09209137 -0.03865528 0.06984502 0.09583496
0.060860895 0.073203415 0.074732296 0.056463063 -0.10421602 -0.15009886 0.06174673 -0.016897948
-0.013360706 0.018857436 0.036461815 -0.06025035 0.0072534992 -0.19448437 -0.011586528 -0.13908125
-0.019433206 -0.1237301 -0.03852555 -0.18353452 -0.02967346 -0.056764293 -0.099405445 -0.056165654
00000000: 21b5 40be b32a 04be d756 783d 94f4 8fbc
00000010: 5205 cabd 2f91 133d 3596 39be 322b 8cbd
00000020: cf5a ffbb 1859 f13b 65c9 b3bd 2424 b1bd
00000030: 5bae 023b e7cc 45bd 48b1 08bd 1d73 c1bc
00000040: b2d9 0fbd 1a4b 1cbd 4764 c5bd 3ad2 2d3c
00000050: 8201 9a3c 2e01 743d 82f9 823d eac9 03be
00000060: 1b68 213d 2627 bebd 78e7 0dbd 7ad6 a0bd
00000070: e146 14be eb4c 3bbe 35a7 6abe 6681 dfba
00000080: 14e4 033d c53e 56be f3f3 1fbe 078e 9dbd
00000090: 4eb3 4e3d 2b43 363c 342e 64be d8fc 54be
000000a0: 12dc 02be 797e 77bd 6f66 98bd 0c1a 8dbe
000000b0: 15cf 83be a13f 7cbe b383 adbd fc68 11be
000000c0: de99 56bd 6bb1 793d ed1a 8dbd c011 54bc
000000d0: 63b7 38be f75d 3bbe a7f3 9e3d 358d 19bd
000000e0: d7c7 0fbd 87cb 05be cb11 dd3c fc97 ebbc
000000f0: b39a fcbd 6bff e0bb d1d3 a23c d5ba 61bd
00000100: d09f c1bc 292c 69be 23c9 4dbe feaf 56be
00000110: 89bb 39be cc22 e9bc 660b 27be 0507 87bd
00000120: 436f 23be e38d 81be 2852 38be a46f 923d
00000130: ad0b fdbc 0dc2 12bd 575a 9cbb b799 f63c
00000140: f51b 703d febe 41be 4039 edbd b3a1 b1bc
00000150: 80f3 53be 0969 36be 9bb2 2ebe 8380 72bd
00000160: 7252 9cbd 94af ca3c 6d97 2cbe b016 04be
00000170: 91f6 c9bd 5394 edbd 74fa 0fbe ade3 8f3d
00000180: 2508 2cbe 5b6a 58be 21fb 4bbe ef10 7fbe
00000190: b089 6bbe fc32 4bbe 1468 ab3c 052c c6bd
000001a0: 7a68 efbd 87fe afbc 1023 23be a1b7 82be
000001b0: 86a4 62be 6f5d 5abe aa78 01be eac2 32be
000001c0: 3d93 4dbe 23eb 9dbe ab1c 64be 1349 b1bc
000001d0: 5af5 903c 3270 74be 619e 5cbd 6020 5f3c
000001e0: e996 14be 3674 1fbd e65f a7bd 1d82 0fbd
000001f0: 9132 11be c81b 6fbe c335 b23d e7cb 2bbe
00000200: 51d4 45be b57e 4e3d be49 9dbc 13a5 fc3c
00000210: b8ae 81bd 1099 c8bc 675d 4b3c e6b0 0ebe
00000220: bf87 05be e380 4e3d 2ef6 0ebe caee ccbd
00000230: 5d27 67be 4c4e 34be 931a 0ebe 953c 943d
00000240: d4d9 a13d 717d d8bd c921 8fbe 684e c5bd
00000250: 50e8 86bc 16e7 5fbe a3df 03be 2149 02be
00000260: bc31 81be 18bc 683c 559d 2ebe 8a01 01be
00000270: 2ae2 063d c0b8 29be 5347 d43d 1dc6 31be
00000280: 87da 9bbd 03f7 843d ce38 bbbd 6af8 383d
00000290: 0d44 a9bb beb1 39be f35d 0e3d 7702 05bd
000002a0: 6dce e33c 1389 c93d 3932 3cbe 1d56 8a3d
000002b0: 7b82 5dbd 1582 31bc c197 d43b df21 ea3c
000002c0: bc97 653d 7347 103d 5336 b8bd bb35 12be
000002d0: 3ba0 95bd 02c8 65bd 260e e9bd 1de9 10be
000002e0: 3214 2dbe 2051 fbbd 0d6c f63b bbef 4e3d
000002f0: b475 b3bb bfe7 653c b76a dabd dd2c 3ebe
00000300: ec52 39bd 0f64 2abe 9bee 64bd d6bd 39be
00000310: faf9 1d3d a975 0abe feb9 ba3c c44f 2cbe
00000320: b762 00bd 0a17 2cbc 8f41 a6bd 57f8 bc3d
00000330: fbd5 50be ee94 0abe 1f36 433c 6464 35be
00000340: 9213 27be ec84 4a3d f36c 963d 4128 0abe
00000350: 5d82 cf3d a054 d03d b17b 66bd ddea 3bbe
00000360: 646c 833d aadb 36be 1bea 993c 8c23 eb3d
00000370: 8f99 a33c 5b07 05be bebb 88bd 4301 1bbd
00000380: 747c 6cbd d7bd f33c 6d93 87bd e652 e0bd
00000390: 669a bcbd 0055 1ebd e80a 8f3d 1f45 c43d
000003a0: 4649 793d aceb 953d 3f0d 993d d045 673d
000003b0: 356f d5bd 84b3 19be 24ea 7c3d 916d 8abc
000003c0: dde6 5abc e97a 9a3c fc58 153d 12c9 76bd
000003d0: c3ae ed3b e926 47be 6cd5 3dbc 516b 0ebe
000003e0: 6332 9fbc 3566 fdbd f8cc 1dbd 79f0 3bbe
000003f0: c215 f3bc ad81 68bd 1595 cbbd f50d 66bd

11.weight f4 [10, 784]
0.1201439 -0.112881735 -0.13209352 -0.13186605 -0.12255861 -0.14846687 -0.022529786 -0.22530569
-0.03185502 -0.06264257 0.043043718 0.022848988 0.07639217 -0.056531705 -0.113540694 0.089406304
-0.040402226 0.022256395 -0.14675944 -0.10826433 0.13862821 -0.21133026 -0.004584857 0.031102717
0.007892369 0.10715706 0.029928733 0.026538301 0.028404756 -0.055549372 0.027550679 0.06775535
0.043060932 0.06993497 -0.010470102 0.082077734 0.026403215 -0.02804078 0.06422818 0.021119121
0.012560915 -0.18871635 0.029398087 0.050390493 -0.022566915 0.027721453 0.058989502 -0.1515028
-0.1824957 -0.100212 0.0015695649 -0.061656717 -0.020858059 -0.1559975 -0.16270706 -0.2559487
0.13538034 0.11148083 0.0495287 0.03851303 -0.018333659 -0.10569552 -0.2042274 0.16069221
0.21103683 0.045412704 -0.04947123 -0.074976966 -0.1734538 -0.21109289 0.06415263 0.11902322
0.04865021 0.14180405 -0.048054617 -0.08791455 -0.1543795 -0.027586637 0.019013463 -0.002366823
-0.0032745006 0.02218374 -0.04021281 -0.07658939 -0.058476523 -0.0781085 0.02860802 -0.04367046
0.1329099 0.07394724 0.034775335 -0.06137535 -0.103671506 -0.07486344 -0.013326733 -0.039386533
0.03728093 0.02130953 0.041527264 0.13503473 0.13155332 0.122796744 0.0885015 0.118007325
0.113516994 0.05642897 0.121899776 0.0956194 0.13785987 0.027380662 0.1035238 0.0138292685
0.03077358 0.033822984 0.0018489206 0.033020083 0.020086367 -0.14544924 0.0038870578 0.0100964615
0.023809263 -0.19589742 -0.0057159564 0.01811009 -0.09962202 0.04196809 0.08815424 -0.023764012
-0.07997513 0.003476313 0.0018625347 -0.06405147 0.00017983286 0.15072417 0.110030845 -0.034486108
-0.060094386 0.11381469 0.005554458 0.112028286 0.035320733 0.043420047 0.050971236 0.0803269
-0.0094230985 -0.037578244 -0.002003724 0.06155003 0.045847375 -0.07704583 0.08121156 -0.0016596677
-0.04148665 -0.04236033 -0.12270497 -0.013359686 -0.027262386 0.057613295 0.11124392 -0.026945073
-0.005998055 -0.13584457 0.014483113 0.09421705 -0.03328016 0.07915631 0.029243818 -0.14428267
-0.14478734 0.053575017 0.039295886 0.07338594 0.054688115 -0.110312596 -0.15588573 -0.046001658
-0.0056506204 -0.10762807 0.023391465 0.06108 0.005060478 -0.10466039 -0.12371974 0.0007580318
-0.06847277 0.046763543 -0.021828998 0.029664846 -0.11523071 -0.104825504 -0.023996713 -0.014140881
0.05416549 0.0063352976 0.041711267 -0.08529382 0.054716807 0.057477422 -0.059654955 0.055114154
-0.029101823 -0.0005031198 0.119312316 0.07016117 0.092997245 0.038822167 0.055582035 0.028345767
0.052871685 0.06127538 -0.020021133 -0.008612656 -0.0116376765 0.018854015 0.10769623 0.0210762
0.02373266 -0.016333807 -0.018714033 -0.039769787 -0.015605026 0.0091652265 -0.011423577 -0.05020326
-0.07318426 0.011927755 -0.02273007 0.024588432 -0.11317273 -0.011661511 0.0023201855 0.053442426
-0.0058390074 -0.028883139 -0.01997178 -0.06871403 -0.026240641 -0.044504207 0.08204381 0.07077264
-0.018833868 0.08948638 -0.028686544 0.0016576229 0.12859541 -0.049900565 0.021730507 -0.083950624
-0.012522206 0.059656262 -0.03006693 0.03607476 -0.06538071 0.10115703 0.007188635 0.0470926
00000000: 010e f63d 8a2e e7bd 8643 07be e507 07be
00000010: 0200 fbbd b307 18be 6390 b8bc 89b6 66be
00000020: 697a 02bd bf4a 80bd 9c4e 303d cd2d bb3c
00000030: 7f73 9c3d ca8d 67bd 0688 e8bd a71a b73d
00000040: ce7c 25bd 0b53 b63c 1b48 16be b0b9 ddbd
00000050: 8ef4 0d3e f666 58be 913c 96bb 20cb fe3c
00000060: ff4e 013c 2975 db3d 1a2d f53c da66 d93c
00000070: 17b1 e83c bd87 63bd f6b1 e13c 51c3 8a3d
00000080: a960 303d 113a 8f3d ca8a 2bbc 5f18 a83d
00000090: 8e4b d83c c7b5 e5bc 108a 833d 0202 ad3c
000000a0: 4ccc 4d3c dc3e 41be 42d4 f03c 4366 4e3d
000000b0: 40de b8bc 1a18 e33c fa9e 713d 8d23 1bbe
000000c0: 27e0 3abe f33b cdbd dcb9 cd3a c18b 7cbd
000000d0: 85de aabc cfbd 1fbe ae9c 26be b50b 83be
000000e0: 25a1 0a3e 1050 e43d 9bde 4a3d d7bf 1d3d
000000f0: 7830 96bc e576 d8bd fd20 51be 808c 243e
00000100: 0a1a 583e ac02 3a3d 58a2 4abd 868d 99bd
00000110: df9d 31be bc28 58be 7462 833d 72c2 f33d
00000120: 7145 473d 1535 113e ebd4 44bd 8b0c b4bd
00000130: a915 1ebe 5ffd e1bc 1fc2 9b3c b31c 1bbb
00000140: 0199 56bb adba b53c 30b6 24bd e6da 9cbd
00000150: 1485 6fbd 59f7 9fbd 5e5b ea3c ccdf 32bd
00000160: 8819 083e a771 973d 9570 0e3d b864 7bbd
00000170: ba51 d4bd 0152 99bd 5f58 5abc c653 21bd
00000180: e3b3 183d 5391 ae3c 7e18 2a3d 8b46 0a3e
00000190: eab5 063e dc7c fb3d 4640 b53d d3ad f13d
000001a0: 997b e83d 1022 673d 97a6 f93d 1bd4 c33d
000001b0: 232b 0d3e 694d e03c 4904 d43d 2894 623c
000001c0: e018 fc3c f889 0a3d 7b57 f23a 1140 073d
000001d0: 2a8c a43c a5f0 14be 02be 7e3b a16b 253c
000001e0: a50b c33c 5599 48be eb4c bbbb 9d5b 943c
000001f0: a106 ccbd bbe6 2b3d 368a b43d bfac c2bc
00000200: 00ca a3bd dbd2 633b 4b20 f43a 6b2d 83bd
00000210: 8491 3c39 7057 1a3e da57 e13d 4e41 0dbd
00000220: 8825 76bd ad17 e93d 2c02 b63b 166f e53d
00000230: 79ac 103d 38d9 313d 37c7 503d 6e82 a43d
00000240: 5763 1abc a5eb 19bd e950 03bb e21b 7c3d
00000250: 75ca 3b3d 34ca 9dbd 3f52 a63d 3589 d9ba
00000260: e8ed 29bd 0682 2dbd be4c fbbd 96e2 5abc
00000270: 5e55 dfbc ebfb 6b3d dad3 e33d eabb dcbc
00000280: 558b c4bb d71a 0bbe 944a 6d3c def4 c03d
00000290: c750 08bd b41c a23d bb90 ef3c d6be 13be
000002a0: 2243 14be 7a71 5b3d b9f4 203d 5e4b 963d
000002b0: a500 603d 92eb e1bd 82a0 1fbe 3c6c 3cbd
000002c0: d728 b9bb 1b6c dcbd 759f bf3c 062f 7a3d
000002d0: 5ed2 a53b 3058 d6bd c660 fdbd a7b6 463a
000002e0: 743b 8cbd 218b 3f3d bad2 b2bc b103 f33c
000002f0: 14fe ebbd c1ae d6bd c194 c4bc 27af 67bc
00000300: a2dc 5d3d 5498 cf3b 6fd9 2a3d 87ae aebd
00000310: bb1e 603d 726d 6b3d c158 74bd 61bf 613d
00000320: f266 eebc cce3 03ba 045a f43d a9b0 8f3d
00000330: 5775 be3d fe03 1f3d fda9 633d 6235 e83c
00000340: fb8f 583d e5fb 7a3d 5c03 a4bc 191c 0dbc
00000350: f4ab 3ebc bc73 9a3c d78f dc3d ffa7 ac3c
00000360: ff6a c23c 7ace 85bc 2c4e 99bc a5e5 22bd
00000370: 39ac 7fbc bf29 163c f429 3bbc efa1 4dbd
00000380: a1e1 95bd a16c 433c 6934 babc ae6d c93c
00000390: 1bc7 e7bd ec0f 3fbc 410e 183b 72e6 5a3d
000003a0: 2555 bfbb 559c ecbc dc9b a3bc f1b9 8cbd
000003b0: 9df6 d6bc 0b4a 36bd 9606 a83d 3ff1 903d
000003c0: 7c49 9abc a344 b73d 0b00 ebbc 9844 d93a
000003d0: 84ae 033e 8964 4cbd 2d04 b23c 4eee abbd
000003e0: f029 4dbc 205a 743d ec4e f6bc 21c3 133d
000003f0: 52e6 85bd 6b2b cf3d a48e eb3b 2ce4 403d
