logs/experiment3/model.pth (torch, 409059 bytes, 18 tensors)

0.weight f4 [20, 3, 3, 3]
00000000: 70ba 9abd cc16 383e c6e5 39be 176d b0bc
00000010: 8a46 2fbd c66d 18bc 01f0 9b3b f84d 563d
00000020: 3bb1 2c3e 9e55 e8bd d788 8fbc 85ff 143d
00000030: 5a62 66bc 81b3 353e 76b3 34be 1282 b9bd
00000040: e88d 2b3e 4883 b1bd be8a f73d 1a32 ce3d
00000050: a888 333e 038f 37be 0c75 00be 1314 f7bb
00000060: f927 8ebd b93b 5a3d 789f e5bc 720b 883f
00000070: 5adb b83f c96f 443f bf8d 663c 82e5 bdbc
00000080: 7e5d b3bd 49e3 6fbf 6a60 94bf 5ab2 1bbf
00000090: 3acc 4b3f 9f2a 353f 9021 4c3e 0035 903c
000000a0: 78f1 41be d488 41bb 1c7c 10bf fa97 5fbf
000000b0: 8168 55be 8ed8 053f 9eab d03e 119c 89bd
000000c0: 60db d93c 93e8 763e f1e9 023d 5914 b3be
000000d0: 1588 1fbf 2407 88be 9cd3 19be 4516 0c3d
000000e0: 81c4 da3b e4fa 42be aca9 37be 3f22 66be
000000f0: 6375 2bbe 5249 5dbe 2bb1 7dbe 6e7d 0c3d
00000100: a3b1 903d c523 ffbd 9e6b e6bd 051e 093e
00000110: 72cb b5bb 9b59 95bd 9485 ea3d b21a 273e
00000120: c578 ce3e 2f3f b93e e267 903e c6a3 333e
00000130: 7113 d83e 2346 b53e 0a8f 623e 2ee3 d73e
00000140: 95cb c73d edbd f4bd 4c4a 91be 3855 b6be
00000150: a0f4 85be 4c48 eabe 5665 e5be b03d 1cbe
00000160: 2995 11bf bdef afbe 8457 5cbd ec51 b1be
00000170: fa10 82be 4198 97be d1b4 5cbe 2989 cbbc
00000180: 14d3 01be a6e6 04be cfb0 0bbe 1678 47be
00000190: 26a3 98be be50 70be b09a c3bc 8c3f 8cbe
000001a0: 5b3f a2be 030d 64be 725b dcbe 2101 d3bd
000001b0: 84ba 713e 9356 e6bd 1f6d 9ebd 2b48 9e3f
000001c0: f1bb a2be a285 3abf c52d 613f a352 2fbf
000001d0: fa9d debe 9c90 343f 880f 3abe 19c1 f0be
000001e0: b414 d43f a02b d7be e543 87bf 9e44 903f
000001f0: 4ce5 42bf fa0e 39bf a0e0 333f 60a3 4bbe
00000200: db17 28bf cafe b33f d424 7abe 8035 a3bf
00000210: 7232 933f 0fb8 d1be 70f8 13bf a2ad 9cbe
00000220: c903 7fbe a7a4 d0bd 612f c4be 8aa5 efbe
00000230: c244 8cbe 8e5f 71be 3361 bdbd 0ccd 98be
00000240: da54 e23d a73a a83e 3096 773e ba44 2c3e
00000250: 0676 863d 2639 0dbe 2b42 35be dc72 41bd
00000260: a24d e3be afb9 043f 857a 133f c4b6 e83e
00000270: c319 0b3f 34ad e13e 9e96 d13e aee7 a93e
00000280: ce9a a43c 0b2d fa3d 1cbd 77be 8f31 de3d
00000290: 92c9 d03e 20ef f73b 2748 76be e1d9 a53e
000002a0: 0518 22bf 320c 75be 8a49 f83c df72 703e
000002b0: d6f1 c23e 2fbf 673f 21ba 9b3e 4495 113f
000002c0: 9c4b 5d3f 0ec2 70be 6d84 5f3e 6c06 063f
000002d0: ee03 e3be b649 47be 3a5f fc3d 7c4e 37bf
000002e0: 5ce4 18bf 9f98 98be e6d6 46bf f83d febe
000002f0: f273 b0be 82d4 abbe e4e4 0cbf 4dcd e0be
00000300: e920 113e 19cd f2be 94be 59bf dbd2 04be
00000310: f38b 0dbe 49d8 c0be b594 213f 869b 2e3f
00000320: 1af4 383f daf3 623f 079e eb3e e3c4 9a3e
00000330: 9b66 273f 71a9 db3e ba85 043f c747 f8be
00000340: 11fe 9ebe 679a 87be cbee 80bd c845 92be
00000350: 7796 18bf 5a44 dd3c 5d05 c2be fe35 d4be
00000360: c2a2 56be 21fd d73e d0c9 083f 1ed1 1f3e
00000370: a55a 853e 9c27 1a3f d40b 633e 6cbf d73e
00000380: 036a 083e d047 3dbf c56a bebe a6b6 85be
00000390: fae6 1cbf 0231 9dbe fcb4 51be e328 debe
000003a0: 3d61 0abe 9058 113c 3923 97be f6f7 8dbd
000003b0: f097 983e a511 11bd f707 43bd 5eed 3b3e
000003c0: 8da5 823e b86d 9d3e db51 0e3f 8725 d3be
000003d0: fb2b 04bf 870c cbbd 32c8 8e3e e3ac 6e3d
000003e0: ab66 2f3e 9227 233f 7eaf d13e a916 49be
000003f0: 8d3f 2fbf 370b 35bf ff66 7cbe e3e1 a13e
-0.075550914 0.17977446 -0.18154058 -0.021536393 -0.04279188 -0.009303516 0.0047588353 0.05232045
0.16864483 -0.11344455 -0.017521305 0.036376495 -0.014061535 0.17744257 -0.17646584 -0.09058012
0.16753352 -0.08667618 0.1208701 0.1006815 0.17532599 -0.17925648 -0.1254465 -0.007540235
-0.06941218 0.053279612 -0.028030142 1.0628493 1.4441941 0.7673307 0.014071881 -0.023180727
-0.087580666 -0.93706185 -1.1591923 -0.6081902 0.796085 0.7076816 0.19934678 0.017603397
-0.1893977 -0.0029531019 -0.56439376 -0.8734127 -0.20840646 0.5228356 0.40755934 -0.067192204
0.026593864 0.24112158 0.031961385 -0.34976462 -0.6231702 -0.26567948 -0.15022129 0.034200925
0.006676257 -0.1904102 -0.17935818 -0.22474001 -0.16743998 -0.2161 -0.24774615 0.034299307
0.070651315 -0.12457994 -0.11250995 0.13390358 -0.005547934 -0.072924815 0.11451259 0.16318777
0.40326515 0.36181018 0.28204256 0.17542943 0.42202333 0.35405073 0.22124878 0.42165512
0.09755627 -0.11950288 -0.28376997 -0.35611892 -0.26163197 -0.45758283 -0.44803876 -0.15257907
-0.56868225 -0.34362593 -0.0537944 -0.34632814 -0.25403577 -0.29608348 -0.21553351 -0.024845676
-0.12678176 -0.1297861 -0.13641666 -0.19479403 -0.29811972 -0.234683 -0.023877472 -0.27392232
-0.3168896 -0.22270589 -0.43038517 -0.1030295 0.23606306 -0.112469815 -0.07735657 1.2365774
-0.31784013 -0.7286016 0.87960464 -0.6848547 -0.43479902 0.70533156 -0.18169987 -0.47022322
1.6568818 -0.4202547 -1.0567595 1.127094 -0.7613113 -0.7228848 0.70264626 -0.19886541
-0.656614 1.406213 -0.24428111 -1.2750702 1.149977 -0.40960738 -0.5780096 -0.3060122
-0.24903788 -0.10187655 -0.38317397 -0.46805984 -0.27396208 -0.23571607 -0.09247055 -0.29843938
0.110513404 0.32857248 0.24178386 0.16823092 0.0656548 -0.13791332 -0.17701022 -0.04722868
-0.44395167 0.5184583 0.57608825 0.4545194 0.54336184 0.44077456 0.40935224 0.3318457
0.020093348 0.122156225 -0.24193233 0.10849296 0.40778786 0.0075663477 -0.24050961 0.3239279
-0.633179 -0.23930433 0.030308504 0.2348132 0.3807513 0.905261 0.30415443 0.56868386
0.86443496 -0.23511526 0.2182786 0.5235355 -0.44338936 -0.19461712 0.123228505 -0.7160413
-0.5972345 -0.2980394 -0.7767166 -0.49656653 -0.3446346 -0.33560568 -0.5503676 -0.43906632
0.1417271 -0.47422102 -0.85056424 -0.1297106 -0.13822918 -0.37665012 0.63117534 0.6820606
0.7224747 0.8865334 0.46019003 0.30228338 0.6539094 0.4290271 0.5176655 -0.48492262
-0.31053212 -0.26484987 -0.06295546 -0.28568864 -0.5960459 0.027010132 -0.37894717 -0.41447443
-0.20960525 0.4218531 0.5343294 0.15607116 0.2604572 0.6021669 0.22172481 0.4213823
0.1332169 -0.739377 -0.37190834 -0.26115912 -0.6128994 -0.30701452 -0.20479196 -0.4339057
-0.13513656 0.008871213 -0.2951906 -0.069320604 0.2980342 -0.035417218 -0.047615018 0.18352267
0.2551693 0.3074777 0.5559365 -0.4123957 -0.5162961 -0.09914499 0.27887112 0.058270346
0.17129008 0.63732255 0.40954202 -0.1963755 -0.68456346 -0.7072024 -0.24648665 0.3161765

0.bias f4 [20]
00000000: 91c7 843d 25ee c5bc 7ce0 083e 3889 4fbd
00000010: ba68 023e 6a9c 163e b0d7 aebd cfa5 af3d
00000020: 0cca 2a3c aec7 38bd 2b10 1cbc db80 f33d
00000030: 084b 60bd 14ac 383e 2edb 36be 8650 1c3d
00000040: 8c58 21be 7484 483d cc95 e4bc 0ee9 123e
0.06483377 -0.024161408 0.13366884 -0.05066797 0.12735263 0.14708105 -0.08537233 0.08576547
0.010424148 -0.045112304 -0.009525339 0.118898116 -0.054759055 0.18034393 -0.17857048 0.03816273
-0.15756434 0.048954442 -0.02790346 0.14346716

1.weight f4 [20]
00000000: 27e0 803f da77 2c40 7b12 b23f 44f9 d83f
00000010: 9522 5f40 0773 aa3f 9edd 0640 08b5 1240
00000020: b3ba e43f 1c5e 1240 7106 0140 1438 7f3f
00000030: 993b ad3f e1f3 eb3f 6b54 a03f ac12 803f
00000040: 0527 9e3f 3755 e33f 30cc ea3f 26f8 f03f
1.0068406 2.6948152 1.391189 1.695107 3.4864857 1.3316354 2.1072764 2.2922993
1.7869476 2.286994 2.0160182 0.99694943 1.3533813 1.8433801 1.2525762 1.0005698
1.2355658 1.776038 1.8343563 1.8825729

1.bias f4 [20]
00000000: 0b0e 48bb abcc 6b3d 2cb9 39be 29c4 d2be
00000010: 681a cebc b4c0 093f d8c4 483e bb83 ab3d
00000020: 5fb0 283e 30bd ecba f9ca f83e aecc 80bd
00000030: be87 8f3e d2b6 333e 22ca 643d 134b e5bc
00000040: 978f a7bd 6753 81bb 1670 123e 766f b0bb
-0.0030525948 0.057568233 -0.18137044 -0.41165283 -0.025159076 0.53809667 0.1960634 0.08374735
0.1647353 -0.0018061753 0.48592356 -0.062890396 0.2803325 0.17550209 0.05585683 -0.0279899
-0.081816845 -0.00394671 0.1430057 -0.005384381

1.running_mean f4 [20]
00000000: 2d00 833d 4fb9 0b3e f1ad 4b3f a7d5 4dc0
00000010: 8c02 b63c 533e 0b3f 8d51 31be 358d 22be
00000020: 40bc 983e b002 f6bb 0f07 aabd 6ec8 953e
00000030: 472a b83f 1664 2d3e 3c13 e4bf 87b0 133e
00000040: 3799 7fbf 9987 a33d 7290 ea3d 8aed a93d
0.06396518 0.13644908 0.7956229 -3.2161653 0.022218011 0.54391974 -0.17316265 -0.15874179
0.29831123 -0.0075076446 -0.083021276 0.29254478 1.4387902 0.16932711 -1.781837 0.14422809
-0.9984316 0.079848476 0.11453332 0.0829726

1.running_var f4 [20]
00000000: a3c1 d43a e909 313f 3958 863e 42b2 0940
00000010: 95bd 773f 675c af3e 5e4c 983e b53a 333e
00000020: 4417 0c3e 3160 b63e 7ef2 b53e d514 283c
00000030: 43a1 023f fb06 bb3e c007 1b3f dee2 963b
00000040: 2dc7 373e 1a4e 813d 9523 883e f6bf 6e3e
0.0016232025 0.69155747 0.26239184 2.151505 0.96773654 0.34250185 0.29745764 0.17502864
0.1368075 0.35620263 0.3553657 0.010258873 0.51027316 0.36528763 0.605587 0.0046046814
0.17947073 0.06313725 0.26589647 0.23315415

3.weight f4 [10, 20, 4, 4]
00000000: 50d6 3d3d 6839 c4bc a749 d33c 04fa 143d
00000010: cc0e 143c ee7d 0a3d e5f2 cfbc 48e8 3e3d
00000020: 4373 a4bb deb6 a5bc 6b05 e93c 513f d63c
00000030: 6cb7 66bc b397 053d 49ad 343d 06df ff3c
00000040: 6496 8d3e 88f0 133e 1d2f 2e3d f148 e8bd
00000050: f55e 07be c149 e1be 991d b9be a35b 85be
00000060: 2ca3 103d a52d fabd d8b5 cfbd 687a 47bd
00000070: 3b61 173a dda6 013e af31 8d3d 5328 12bc
00000080: 11af 0bbd 7829 c9bd f07e acbd d443 a6bd
00000090: 7222 2fbd a98e 15bd d72a 0bbe 00a2 85bd
000000a0: 896f 1e3b 070d b9bc 1c23 3ebd e2c6 93bd
000000b0: 86e9 0a3d 868d 2abc 0a68 a8bc 700c ae3c
000000c0: 87d2 173c 7f38 08bc 8b7e b6bd ba76 bbbd
000000d0: 7558 00be df1a dbbd 0142 83bd a195 31bd
000000e0: ca54 a9bd 5aaf 94bd dfda 02bc 5498 ba3b
000000f0: 4738 24be b42d 34be ffe1 e1bc d756 a93c
00000100: b7fd 7e3e 47fd 62bd 3ebb 1b3c 9141 2bbd
00000110: 159d 2dbe 6eec 5b3d 9211 553e 40f6 933d
00000120: 92a2 40be b036 c43e d372 733e a9d9 8b3c
00000130: 791f 42bd e986 4f3e 09bc 28be ed3e e3bd
00000140: 3ca4 c93d e381 943d d7d5 a63d 8263 ebbc
00000150: 3aed 94bd ce22 c9bd 7dfd d4bd d4e2 08be
00000160: f1ad ff3d df18 e93d 4789 223e c378 363d
00000170: e31f 273e c045 853e b2e6 233e fae5 e73d
00000180: 1cff 8c3e 0ef5 2c3e cfac 403e bc89 e13d
00000190: b42b bd3e 53d0 cc3d ec69 253e 914f 4d3e
000001a0: 7f59 c53e ea3d a23d efb1 443e ad8e 533e
000001b0: 98e1 e03d 4507 debd c68b 4a3e 2e9a 5bbc
000001c0: a351 cabd 79a3 0d3c dcaa 9abd af24 86be
000001d0: e552 f5bd 04ff 4f3e 90ca 3e3e 21e6 2fbe
000001e0: be18 9dbd 1baf 583e f279 343e 1087 f0bd
000001f0: 845d 093d 2983 3d3e 80ed 173d 3197 eebd
00000200: 58f9 d8bd 19c6 20be 4454 0abe f1a7 ce3c
00000210: a1b4 18bd a8ab 78be 6c6a 5bbe 23ff 213d
00000220: dd78 1fbe f7cf 9cbe d44f 8cbe e642 7dbd
00000230: c841 dabd 9a38 9bbe bc12 4dbe 6b8e a3bd
00000240: dd35 153d 2909 233c 64ec d93d 6de2 3cbd
00000250: 49f3 dc3d c94d 423e e241 573e 2b8f dd3d
00000260: fe7b cb3d fb00 b53b 8859 9fbc 20ab 93bd
00000270: 9dda 32bd 4b96 53be 316a 30be f6ce 87be
00000280: daef f6bc e357 ab3d 81d1 013e 126f 523d
00000290: e274 febd 21f0 1b3e 0fcf 2f3e cb81 cd3a
000002a0: 158e 53be 7b6c 353e 8cb9 89bc fe0f c1bd
000002b0: 2f97 8dbd 8bf6 d23d 178c 30be 3538 0abe
000002c0: f877 243d 50fd e13c 8421 09bd 2205 7c3a
000002d0: d020 50bd 74c2 f0bc b6e9 08bd 596a 9fbb
000002e0: 6ae9 193d 6a77 2abd 598a 443d 241e 783c
000002f0: c68b c5bc 4872 193d 1344 59bd 2531 4e3d
00000300: d1ce 1fbe 6a23 90bd fffd 68bd c1aa debd
00000310: fd47 febd 89e4 e43b 0a28 21bb 1240 00bd
00000320: f064 45bd f2c1 b63d 484d a63c 1758 77bc
00000330: 97bc e8bd 937e 21bd 2396 303d 14fe 9dbd
00000340: d430 fc3c c302 663d 2afb a93d 06f1 f6bd
00000350: fc85 473d 8ed9 193e 8836 823c 0e40 09be
00000360: 3ef8 b13d 2a0a 093e 7c2f ad3d 73b5 c0bc
00000370: 8980 033e bb12 253e d722 d03d e249 21bd
00000380: 70da a5bd fb3a 39be d5be e1bd f421 1abe
00000390: a827 afbc 6257 12be c48a 38be 8f5a e8bc
000003a0: 586b 1cbc 28fa aabd 600f a13b be3a 43bb
000003b0: 9501 a8bd 3756 49be 8cb9 c0bd 501d c03c
000003c0: 4c42 42bd d215 6a3b f752 c73b 2462 1ebd
000003d0: d510 03bd e960 933b 58b3 143d 5a39 d2bc
000003e0: d2fa 31bc 8875 4d3d ae1e 5fbc a479 30bd
000003f0: ed24 4e3b 6435 ef3a a31c 11bd e8e9 d6bb
0.046346962 -0.023953155 0.025791956 0.036371246 0.009036731 0.033811502 -0.025384376 0.04660824
-0.005018623 -0.0202288 0.028444966 0.026153238 -0.014081817 0.032615375 0.04411057 0.031234276
0.276538 0.14447224 0.0425254 -0.113420375 -0.13219817 -0.44001582 -0.36155394 -0.26046476
0.035311863 -0.12215737 -0.10142106 -0.04870072 0.00057746813 0.1266131 0.06894242 -0.008920747
-0.034102503 -0.09822363 -0.08422649 -0.08118406 -0.04275746 -0.036513004 -0.13590561 -0.0652504
0.0024175367 -0.02258922 -0.0464202 -0.07215668 0.03391411 -0.010409718 -0.020557422 0.021246165
0.009266502 -0.008314251 -0.08910855 -0.09153505 -0.12533744 -0.10698485 -0.064090736 -0.043355588
-0.08268125 -0.07260008 -0.007986753 0.0056944285 -0.16037093 -0.1759556 -0.027573584 0.020671291
0.24901472 -0.055417325 0.009505091 -0.041810576 -0.16954453 0.053692274 0.20807484 0.07224703
-0.18812016 0.38322973 0.2377427 0.017071562 -0.047393296 0.20266308 -0.1647798 -0.110959865
0.09845778 0.072513364 0.081462555 -0.028733972 -0.0727181 -0.098210916 -0.103999116 -0.13367778
0.124843486 0.11381697 0.1587268 0.04454876 0.16320758 0.26029778 0.16005972 0.113231614
0.27538383 0.16890356 0.18815921 0.11012599 0.36947405 0.10000672 0.16153687 0.20049883
0.38544843 0.079219654 0.19208501 0.20659895 0.109805286 -0.1084123 0.19779882 -0.0134034585
-0.09878852 0.008644932 -0.0755212 -0.26199862 -0.119787015 0.20312124 0.18631959 -0.17177631
-0.07670735 0.21160547 0.17624643 -0.11744511 0.03353645 0.18507065 0.037091732 -0.11649931
-0.105944335 -0.15700568 -0.13508707 0.025226565 -0.037281636 -0.24284232 -0.21427315 0.039549958
-0.1557345 -0.30627415 -0.27404654 -0.061831377 -0.10657078 -0.3031662 -0.20026678 -0.079861484
0.03642832 0.009950914 0.10640791 -0.046114374 0.107885905 0.18974985 0.21021226 0.10818323
0.09935759 0.0055237985 -0.019451872 -0.07210374 -0.043665517 -0.20662801 -0.17228009 -0.26525086
-0.030143667 0.083663724 0.12677576 0.051375456 -0.124246374 0.1522832 0.1716883 0.001567894
-0.20659669 0.17717163 -0.016812108 -0.094268784 -0.069136016 0.103009306 -0.1724094 -0.13498004
0.040153474 0.02758661 -0.03347923 0.0009613802 -0.050812542 -0.029389597 -0.03342601 -0.0048649726
0.037576117 -0.04161779 0.0479835 0.015143905 -0.0241145 0.037462503 -0.053043436 0.050339837
-0.15606238 -0.07038005 -0.056882855 -0.108724125 -0.124160744 0.0069852513 -0.0024590516 -0.031311102
-0.048191965 0.08923711 0.020300522 -0.015096686 -0.11364096 -0.03942735 0.04311193 -0.07714477
0.030785002 0.056154978 0.08299859 -0.1205769 0.04871176 0.15024397 0.015895143 -0.13403341
0.086899266 0.13382784 0.084563226 -0.023524022 0.12842001 0.16120426 0.10162895 -0.0393771
-0.08098304 -0.18088906 -0.110227264 -0.15052015 -0.021381214 -0.14291146 -0.18021685 -0.028363494
-0.009547077 -0.08348495 0.004915163 -0.0029789652 -0.08203427 -0.19661795 -0.0941039 0.023451477
-0.047426507 0.0035718572 0.006082888 -0.038667813 -0.031998474 0.0044976366 0.036303848 -0.025662113
-0.010863023 0.050160915 -0.013618154 -0.043084756 0.0031455115 0.0018250165 -0.0354277 -0.0065586455

3.bias f4 [10]
00000000: 9937 e43c 16e4 63bd 527d d73b 00e7 0d3d
00000010: 9ac7 0fbc a0f9 2bbb d6ea ce3c 3e67 673b
00000020: da35 903a 8b32 8a3c
0.027858542 -0.05563744 0.0065762186 0.034644127 -0.008775616 -0.0026241317 0.025258463 0.003530934
0.0011002377 0.016869804

4.weight f4 [10]
00000000: 5244 e73f 76ec 0f40 48ba 0240 df8e f03f
00000010: 4b8a 0940 729c 2240 f435 1840 e071 0540
00000020: 5ad0 0940 11a7 e53f
1.8067725 2.2488074 2.0426197 1.8793601 2.1490657 2.5407987 2.378293 2.0850754
2.1533418 1.794161

4.bias f4 [10]
00000000: 7386 bd3d f3fd 52be f73b a13d 2232 bc3d
00000010: 97cb 61be a2e4 d2be 25bb 51be 7ebc b7be
00000020: 808e 35be f542 3cbe
0.0925416 -0.20604686 0.078727655 0.091892496 -0.2205032 -0.41190058 -0.20481546 -0.35885996
-0.1773014 -0.18384917

4.running_mean f4 [10]
00000000: f1e3 d03e 5e78 1bc0 7689 ffbe 6896 e2be
00000010: 5357 b23f 5e62 6ebf f4d4 15c0 3af3 223f
00000020: f3fc 8e3e 6d4f 423f
0.40798905 -2.4292216 -0.49909562 -0.44255376 1.3932899 -0.93118846 -2.3411226 0.63652384
0.2792736 0.75902444

4.running_var f4 [10]
00000000: 7865 263f 1284 783f fb5c 483f 93eb 863f
00000010: a125 cc3f e3a5 3f40 0360 853f fa80 ae3f
00000020: 05ff 873f 75e4 863f
0.6499858 0.97076523 0.78266877 1.0540642 1.5948983 2.9945 1.0419925 1.363311
1.0624701 1.053847

7.odefunc.fc1.weight f4 [16, 2250]
00000000: 7183 153d d2da 393d ccc4 7b3c 0226 53bd
00000010: 4d3e 0fb8 05c1 c53c c4a8 b83c 2f27 563c
00000020: c157 b73c db39 2e3c 2466 f43b 0857 9fbd
00000030: 418c 3bbc cd9c 09bd 00ca f1bb 0bb3 323d
00000040: c097 2d3d 5b41 c63c c167 9bba 795b 41bd
00000050: c037 943c 5d13 afbc 1ec6 de3c 7d82 c3bb
00000060: 5e18 c4bc 4ebd fb3b c437 a4bb c8ff 80bc
00000070: b341 1c3d 7f35 803d 0f85 9a3c fda2 0cbd
00000080: bde3 a7bc b7ca 193c 91d1 1b3d aa86 813a
00000090: 9a74 e83c 96e6 943c 0590 e1bc 7f80 3fbd
000000a0: 720c d33c 0069 983b 5505 813b 015d 483c
000000b0: f47f c83c b082 323c 86a1 06bd 1190 bbbc
000000c0: 47e9 a2bc da94 a6bd 3a4a 68bd 021c d4bb
000000d0: 664d 45bd 70fa 9dbd b8d0 3aba cf6e 24bd
000000e0: 244d 49bd ab45 cd3c b2a6 113c 14d9 be3d
000000f0: ac4d 8fbc e2ac 223c 4ab6 d23c f071 00bd
00000100: c217 2dbd 15ae 90bd ce34 74bd 729c 1abd
00000110: 11a8 ddbc b6ba 81bd 6bcd e1bc 2067 d23c
00000120: 48fc c03c bd33 ffbb 1124 d2bc b82b 473d
00000130: 928c e7bc 90d7 a63a bbeb f33c 548a 9f3b
00000140: 421a 64bd c17f e1bc 1281 6cbd df11 68bd
00000150: 9f74 05bd 2cf9 0cbd 6f4a 883c 1f0e 033b
00000160: 2601 963c cff5 0d3d bb89 513c f63c 3d3d
00000170: b699 78bc 9313 42bc 7c4d c4bc 420d 2bbd
00000180: e812 2cbd 8702 b2bd 6c85 47bd f750 8a3b
00000190: 8711 203c ee9e b53b 8c3d 6cbc c6b5 1c3c
000001a0: a25e f53c 3c4b fd3c c43d 99bd df7a 2a3d
000001b0: f840 91bc 6348 743c f6ba 30bd 3a5b 99bd
000001c0: 35a4 d0bc 6270 c3bd 2c01 29bd 49db 79bd
000001d0: fb17 653c 03eb dabb 67ba 72bc d29f fcba
000001e0: 350c da3c 00ac 363c ce4d 9abc 197a 4cbc
000001f0: 3321 5c3d 6a52 8f3c c52a 86bd 95ed 90bc
00000200: 731c f5bc 8742 89ba e996 d5bc 0134 673b
00000210: 011f 473d d02f 863c c5c6 c53c 68ca aa3c
00000220: 377d fcba d4bc cab9 f21d 41bc acb1 1fbc
00000230: 3bf1 df3c 9dff c5bc dcb7 41bd 847a 4ebc
00000240: f059 fbbc 55bb 1ebd 3486 a53c 1645 0d3d
00000250: 436b 43bc 9447 2a3d b5a8 3dbc 7d49 7d3d
00000260: 6b27 1fbb bc28 b9bc 87c9 d1bc 2258 4dbd
00000270: 4128 b03b 7ed7 b6bc ed9d 323b 1e9e 73bd
00000280: c50e c4bc b57d b63c 83a2 8dbc a295 0ebc
00000290: e814 2d3c 3ec9 9c3c c22e ab3b 3704 d2bb
000002a0: bcdd 25bd 7b8a ee3c 8dbb 11bd 88d7 d03c
000002b0: 6b63 e03a e252 02bc 395d d63c f2c8 803d
000002c0: 31c6 e6bb df93 493c dcc7 29ba 1399 703d
000002d0: 6ecc cd3c a0a6 323d e2ed 063d 2c94 d93a
000002e0: 0b4a 1e3c bb91 e7bc 1773 12bd e7f2 6dbc
000002f0: 7787 393c 37e8 48bd 8180 30bd 7e19 cf3c
00000300: a898 e8bc 0bb5 c43b 790c 613d ab8e c13d
00000310: 5437 673d fb28 203d 0260 bebb a8ef 143c
00000320: f9b1 8dbc 7b4c dc39 a81e 6a3b 2b37 6e3c
00000330: 9da6 6f3d 7383 7cbc 4113 78bb 5da8 f9bb
00000340: a8ed 9f3c a94a 333d 2ca5 253c 89fb 503d
00000350: c039 2a3b 40e9 573b 9bb8 f8bc 3efd 09bb
00000360: bb40 583c 0541 ed3c 9bbf bcba 8c45 25bd
00000370: b407 2b3c a19a 113d cb1d 75bc b346 a63c
00000380: d6bf 5d3d a6e1 7dbd f84e e93b cbad 4e3d
00000390: e7d0 763d e61d 0dbd 43e7 f4bc 64e9 073b
000003a0: 7704 1b3a d5d0 923c 9b68 43bd 23a3 23bd
000003b0: 494a 58ba 3194 5f3d 200e ecbc 20ae 6ebd
000003c0: 11e7 bbbb fa7b 0fbc dabe 80ba 7025 663c
000003d0: 3df2 83bc 0099 e23b 9a30 f83a 7727 1cbb
000003e0: 2893 ea3a 460b b0bc c5de 14bd af0a 0dbc
000003f0: fd03 d03c 9fee 0ebd af19 a23c 921f 493c
0.036502305 0.0453747 0.015366744 -0.05154992 -3.415188e-05 0.02413989 0.022541411 0.0130708655
0.022380712 0.010633911 0.007458465 -0.07780272 -0.011447013 -0.033596803 -0.0073788166 0.04362778
0.04238105 0.024201086 -0.0011856483 -0.047206376 0.01809299 -0.021371538 0.027194079 -0.005966483
-0.0239374 0.007682479 -0.0050115306 -0.015746966 0.038148593 0.062602036 0.018862275 -0.034335125
-0.020494336 0.00938671 0.038041655 0.0009882052 0.028375912 0.018176358 -0.027534494 -0.046753403
0.02576277 0.004651189 0.003937403 0.012229205 0.024475075 0.010895416 -0.032868885 -0.022895845
-0.019886626 -0.0813386 -0.056711413 -0.0064730654 -0.048169516 -0.07713783 -0.00071264384 -0.040144738
-0.049145833 0.025057634 0.008889841 0.09318748 -0.017493092 0.009928914 0.025721688 -0.03135866
-0.042258985 -0.070644535 -0.05962067 -0.037746854 -0.02705768 -0.063344404 -0.027563771 0.02568394
0.023557797 -0.00778815 -0.025651963 0.048625678 -0.028265271 0.0012729038 0.029775491 0.004868785
-0.055689104 -0.027526738 -0.05774028 -0.05665767 -0.03258192 -0.034417316 0.016637055 0.001999743
0.018311094 0.03465825 0.012789185 0.046200715 -0.015173366 -0.011845487 -0.023962729 -0.04176069
-0.042010218 -0.08691888 -0.048711225 0.0042210775 0.009769804 0.0055426275 -0.014418971 0.009564823
0.029952351 0.030919664 -0.07482484 0.041621085 -0.017731175 0.014909836 -0.04314705 -0.07488103
-0.025468925 -0.0954292 -0.041260883 -0.061000142 0.013982768 -0.0066808476 -0.01481495 -0.0019273704
0.026617149 0.011149406 -0.018835928 -0.012480282 0.0537426 0.017495353 -0.065511264 -0.017691413
-0.029920792 -0.0010472097 -0.026072936 0.00352788 0.048613552 0.01638022 0.024142632 0.020848468
-0.0019263391 -0.0003866913 -0.011786925 -0.00974695 0.027336707 -0.024169737 -0.047294483 -0.012602452
-0.030682534 -0.038752872 0.020205595 0.034489714 -0.011927429 0.04157217 -0.011575867 0.061837662
-0.002428497 -0.022602431 -0.025608791 -0.050132878 0.0053758924 -0.022319552 0.0027254776 -0.059476964
-0.023932824 0.022276739 -0.017289406 -0.008702667 0.0105640665 0.019138929 0.00522408 -0.006409194
-0.040494666 0.029118767 -0.035579253 0.025493398 0.0017119473 -0.007954331 0.026167499 0.06288327
-0.007042669 0.012303322 -0.000647662 0.058739733 0.025121894 0.043615937 0.032941706 0.0016599945
0.009661208 -0.028267732 -0.03575429 -0.014523244 0.011323801 -0.049049582 -0.0430913 0.02528071
-0.028393105 0.0060030273 0.054943535 0.0945104 0.05644925 0.039101582 -0.005809785 0.009090342
-0.017296778 0.00042018652 0.003572384 0.01453952 0.058508504 -0.015412199 -0.0037853273 -0.0076189474
0.019522503 0.043772373 0.010110181 0.051021133 0.0025974363 0.0032945424 -0.030361464 -0.0021055485
0.013199027 0.028961668 -0.0014400365 -0.04034953 0.010438848 0.035547856 -0.0149607165 0.020297384
0.054138027 -0.061982773 0.0071200095 0.05045871 0.06025782 -0.03445234 -0.02989543 0.0020738477
0.0005913446 0.017921844 -0.04770718 -0.0399505 -0.00082508154 0.054584686 -0.02881533 -0.058271527
-0.0057343324 -0.008757586 -0.0009822503 0.014047012 -0.01610672 0.0069152117 0.0018935383 -0.0023827234
0.0017896639 -0.02148975 -0.036345262 -0.008608504 0.025392527 -0.034895536 0.019787638 0.012275593

7.odefunc.fc1.bias f4 [16]
00000000: ca71 493d 0e49 973c beac 6d3d 6c7f 553d
00000010: 353a 053c 16c7 6fbd dee6 bf3c ec47 a73d
00000020: b12d 673d 4388 95bd c235 8abd 44cd 9bbd
00000030: 94a8 33bd 50a8 adbd c5ce 36bd c7f3 9cbd
0.049180783 0.018467452 0.058026068 0.052123472 0.008131553 -0.058539473 0.023425516 0.08168015
0.05644006 -0.073013805 -0.06748535 -0.07607511 -0.04386194 -0.08479369 -0.044630785 -0.07663684

7.odefunc.fc2.weight f4 [2250, 16]
00000000: 1746 b13d ddb1 5bbe 97e2 85bd df62 54be
00000010: fe8e 26bc 7d0f ac3d 6eb8 643e aa10 acbd
00000020: 1a0c 553a 98d6 f3bd 9bec 3abe 6d0e 90bd
00000030: 3975 7dbc 1938 6d3c 2881 4c3e 506c bebd
00000040: 113a 7a3c 178b 2dbe e494 f73d f11a 6e3e
00000050: 5c53 a8bd dbdd 683e 4d11 2e3e ec2f 7e3d
00000060: d0af e6bc 829e 623d 1f27 27bc f156 393e
00000070: d80f 26be 4c4b 653d 10cf 7d3b 8d6c 69be
00000080: 0cd3 e5bd 624f 1c3e 52e1 983d 8f75 5f3e
00000090: d4bf 68bd 2010 d13d 839e 873d 3a1f 96bd
000000a0: 37b8 74be 8c9c 9fbc 4715 ea3d 7d85 e5bd
000000b0: 3c29 763e e79b c3bd 9adb 8fbd dc39 44be
000000c0: 387c 323e d064 413e 74ab 73bd 16dc 26be
000000d0: c37a f03a 4d19 3b3e 8c00 6ebd de9f 873d
000000e0: 76d0 85bd 4aa5 52be 2f66 753e 513b 073e
000000f0: 4494 3a3e 756d c43d ce4b 7abe 95e4 143e
00000100: 5eb3 63bd e12c 0d3e 0b8e 94bc 220c 953c
00000110: 3b41 193e 1b72 d83d c12f ecbc f04d 463e
00000120: 3abe 673e 07f2 723d 0e00 7a3d 5bce 193e
00000130: 65cf 6ebe 7ea2 90bd 4a27 763e cfa2 6f3d
00000140: 4843 80bc dab6 09bd 4400 703e 52f0 7ebe
00000150: 5c21 16be 5174 4bbe 4afd 24be 0528 143e
00000160: e708 d0bd 410d 42be e1f3 0a3d 9040 bd3c
00000170: 2581 4cbe 890b d33c 06ea 793e 11d4 04be
00000180: 5d3a 0e3e 3c73 75be baec 41be 2a38 cb3d
00000190: 112f 59be d282 21be 89fd 623e 4bc9 503d
000001a0: 8b8f 83bd 5fa0 c3bd 1eff 3fbe 24f1 313e
000001b0: 736d d7bc bf36 133e 6100 b13d 5d15 1ebe
000001c0: bd02 cabd 4ffa 4e3e c6cf d1bc c241 5ebc
000001d0: 8a19 89bd 8ba2 5c3e 177a bcbc 996e 9cbd
000001e0: 6391 5bbe f2d7 793d 57bd ad3c 4d20 a3bd
000001f0: f362 61be 2ab9 033d 91c1 f0bd 6c32 dcbc
00000200: 37f3 e93c 427a ebbd eb02 2f3e e76d 5f3e
00000210: c404 6ebe c12a b0bc 5615 23be b6a7 9dbd
00000220: 582c ae3d 8ed2 a23d ea69 e2bd e7b2 46bd
00000230: 8684 873d 24d8 18bc 59c7 c13d 02f3 febd
00000240: 6c6f bdbd d305 cd3d 52ab 703e e0ee 673e
00000250: 4111 2b3e d195 54be 78ab 7d3c a1dc cfbd
00000260: 1d40 8fbd e7d4 ed3b 52cf a03d 39b1 7bbe
00000270: df01 7abe ecb9 9ebd 9a7f 5dbc d09d c23d
00000280: 44ec 8bbd 6d42 2f3d 56bb d5bd 6621 433e
00000290: 45bc 64be de41 7c3d 51a0 443d bbbb 213e
000002a0: 1829 34bd 5a89 af3d 1ee9 173e 86dc a7bd
000002b0: eedb 0abd ff1d 4f3d bb9e 2ebe 79dd a1bd
000002c0: 0613 423e 1738 6d3d 060a 713e 127a 3b3e
000002d0: 53c7 d43d 5b37 93bd 70c7 ab3b 51c3 0cbe
000002e0: 454b 44be 172e abbb 39a6 84bd ca2f 07be
000002f0: cacc d5bd ced3 3fbe 77b8 3d3e 8506 1ebe
00000300: 4dcf 133d 4461 2ebe c18d 053e 6de3 873a
00000310: 9d62 2ebe 8890 4fbe 2154 4e3d dbaa 9f3d
00000320: efc7 623e 39b1 863c e55f 173e 1b99 43bb
00000330: 8edb 493e 93ae 1dbe 9ad5 b03d caab 51bc
00000340: fdde 823d a0d5 b2bc fa5f cc3d 2d58 58be
00000350: edc5 5a3e df87 ae3d 668d ac3d dc62 01be
00000360: 8813 febd dd7e 47bc 5c32 703e 2296 48be
00000370: 72f1 7a3e 76ae 263e 9695 a03c 380d 553e
00000380: 29ce 6d3e 072f 3e3e e8a0 b1bd 5550 f33d
00000390: e7e1 8d3d 2a5a c13d a746 77be 1d6f 5d3e
000003a0: 4a01 3e3e 119a 1b3e 4546 fb3d 26d5 b93b
000003b0: 97a9 773d 2a73 4e3e 64af 6d3e e7a4 a1bd
000003c0: 32a9 5a3e c5cb f2bd c882 69be 0b7e febd
000003d0: adad 11be d307 693e f2c2 993d 50fd 09be
000003e0: 84b3 993c 0973 6ebd fabe 74be df20 023c
000003f0: 0e5e c43b f8cf 283e 90a5 30be faae 113d
0.08655947 -0.21454568 -0.06537359 -0.20740841 -0.010165928 0.08401392 0.2233598 -0.08401616
0.00081271084 -0.11906165 -0.1825432 -0.070340015 -0.015469843 0.014478707 0.19971144 -0.09298003
0.015272633 -0.1694759 0.120889455 0.23252465 -0.082190245 0.22740881 0.16998787 0.06205742
-0.028160006 0.055326946 -0.010202198 0.18099572 -0.16216981 0.05598001 0.0038728155 -0.22795315
-0.112218946 0.15264657 0.074648514 0.21822189 -0.056823567 0.10208154 0.066220306 -0.07330175
-0.23898397 -0.019483827 0.114298396 -0.112071015 0.24039167 -0.095512204 -0.070243075 -0.19162697
0.17430198 0.18886113 -0.059489682 -0.16294894 0.0018347133 0.1827137 -0.05810599 0.06622289
-0.065339014 -0.20570865 0.23964761 0.13206221 0.18220621 0.0959119 -0.2444298 0.14540322
-0.05559098 0.13786651 -0.018134138 0.018194262 0.1496629 0.10568639 -0.028831365 0.19365668
0.2263116 0.059312847 0.06103521 0.15020125 -0.23321302 -0.07062243 0.24038425 0.058504876
-0.015657082 -0.033621646 0.23437601 -0.24896362 -0.14661163 -0.1986859 -0.16112247 0.14468391
-0.10157948 -0.18950368 0.033923987 0.023102075 -0.1997114 0.025762336 0.24405679 -0.12971522
0.13889451 -0.2396974 -0.1893796 0.09922822 -0.2120936 -0.1577256 0.22167028 0.050973218
-0.06423863 -0.09552073 -0.18749663 0.17377144 -0.026297307 0.14376353 0.086426504 -0.15437837
-0.098638035 0.20212673 -0.02561177 -0.013565483 -0.06694324 0.2154638 -0.023007436 -0.07638282
-0.2144218 0.060996957 0.021208448 -0.07965145 -0.22010402 0.032159008 -0.1175567 -0.026879512
0.028558357 -0.11497928 0.17090957 0.21819268 -0.23244005 -0.021504762 -0.15926108 -0.07698004
0.08504552 0.07950316 -0.11055358 -0.04851046 0.06617074 -0.009328876 0.09461851 -0.12448694
-0.09249768 0.100108765 0.23502854 0.22649717 0.167058 -0.20760275 0.015482776 -0.101495035
-0.069946505 0.007258046 0.07852043 -0.24579324 -0.24414776 -0.077503055 -0.013519192 0.095027566
-0.068321735 0.042787958 -0.10436122 0.19055709 -0.22337444 0.061586253 0.048004452 0.1579427
-0.043984503 0.085711196 0.14835021 -0.081963584 -0.033901148 0.050565716 -0.17052738 -0.07903571
0.1895257 0.05791482 0.2353898 0.18308285 0.103895806 -0.071882926 0.0052422807 -0.13746382
-0.19169338 -0.005224 -0.06477017 -0.13201824 -0.10439451 -0.18733141 0.18527399 -0.15432175
0.03608637 -0.17029291 0.13042356 0.0010367461 -0.17029805 -0.20269978 0.0503732 0.0779626
0.22146581 0.016441928 0.14782675 -0.0029845897 0.1971266 -0.15398626 0.08634491 -0.012797305
0.06390188 -0.02183038 0.099792436 -0.21127386 0.21364565 0.08522009 0.08425407 -0.12635368
-0.12406069 -0.012176243 0.2345671 -0.19588521 0.24506167 0.16277489 0.019602578 0.20805824
0.23223175 0.18572627 -0.086732686 0.118805565 0.06927853 0.094410256 -0.24148045 0.21624418
0.18555179 0.1519549 0.12269262 0.005671161 0.060464468 0.20161119 0.23211437 -0.07892781
0.21353605 -0.11855272 -0.22803795 -0.124263845 -0.14226408 0.22756891 0.07507886 -0.13475537
0.018762358 -0.058215175 -0.23900977 0.007942407 0.0059926575 0.16485584 -0.17250657 0.03556726

7.odefunc.fc2.bias f4 [2250]
00000000: f5e2 a13d 0a3b 7aba ef78 d53d 3bbe b23d
00000010: 24a9 88bc 1b86 153e 3edd 24bd 4611 09be
00000020: e9b7 1bbd 782f cc3d 9448 54bd 8ea5 2cbe
00000030: 2ded 4fbe c5c8 1bbe 9971 113e f88f 0e3e
00000040: 2822 e83c 59f3 b3bd 8c1e d03c 873b dbbd
00000050: c119 90bc 9ab1 a4bd 8b93 a13d 6a1f a7bc
00000060: 8908 463d 257a 1dbe c70a 043e c170 11be
00000070: e546 363b f9a0 f33c a28a c13d b380 c1bd
00000080: 0625 d83d aba7 2abd 5889 cf3d e293 80bd
00000090: 0b45 0bbd 2e55 ecbd 9e21 92bd b81d 84bd
000000a0: d342 5cbe 28e9 543c a759 453d b9c6 40be
000000b0: ba45 e1bd 1af7 663d e964 8dbd f279 82bd
000000c0: 0566 39bd e221 6f3c 3c95 92bd ebb6 a53d
000000d0: f888 1cbe 6e4f 9bbd 9073 4fbe b3eb e03d
000000e0: f4fa f9bd 74b7 be3c 544e 1abe 40f5 5fbe
000000f0: 4df8 303d 81fc 99bd e674 c6bd 3154 b63d
00000100: 5bc6 f4bc d65e b6bd 8511 c53c 4814 4bbd
00000110: 868e 19be b76a 353d 8811 22be 6dc0 00bd
00000120: a7d8 963d 3863 6a3d 7987 97bd 4f6a 1abe
00000130: 843e ca3d 2caf f83c d0d0 c83c a4c8 69bd
00000140: 56ea 0bbd 3eae 24bc d1d0 8bbd f135 3c3d
00000150: f95e eb3d da5c d33d df9b cf3c 127e c23a
00000160: 2978 003d ab82 d2bc bedf 47be 33de c03d
00000170: c09b 4ebe f0ee 113d 0d62 4cbe 08ef 183d
00000180: 83a3 dabd 92dc 6b3c f500 b9bc cd85 6a3d
00000190: a285 8a3a c4c6 d0bd d9a5 ba3d e636 0fbd
000001a0: bc6d a83c e876 0c3c 0a47 5bbe 6e41 3dbd
000001b0: 4951 873d 8001 aebc 360d 23bc 795e 39be
000001c0: 26e2 143d 6141 f73d 7b01 50bd 28d4 d7bc
000001d0: 6291 36bd a1f3 11be bf21 d53d 56b5 1d3d
000001e0: f67a 473d 96f1 39b8 36df 06be a9fc 0abe
000001f0: c83f 22be a991 64bd 59df 4abe 7733 353d
00000200: 82ec 4ebc 284e 25be 1d4c c73c 2a9c de3c
00000210: dd68 183d ae72 c0bd e50b 9dbd 73ce 2c3d
00000220: 51c4 683d 2b29 bdbd 376a be3d 68f0 623d
00000230: 31a7 c9bc 78f7 28bc c463 c0bd ee3b 15be
00000240: 5fef f8bd 472d f7bd 6efa 3dbe 0b5c bebd
00000250: 096b e73d 5d89 38be 4f7b 79bb db1d ab3d
00000260: c075 693d 1a4c a73d 381f fdbd d146 d13c
00000270: 49f8 89bd 1ddf 7cbc fbf5 37bd 0ca2 0fbe
00000280: 9cdc 8cbd 095c 53be c96e 9cbc 01b5 4fbe
00000290: f2fb c0bd a3f2 e93d a147 e8bd 19be 383d
000002a0: 7338 883d 68fe 7ebc de8d e0bc c981 32be
000002b0: b7e2 52be 4e2c e4bc 6b4f 9a3d ec36 17be
000002c0: 9161 d0bd 9708 00be 19c9 4a3d 9457 61be
000002d0: 41a5 4cbc 4712 46be 88d9 0ebe 7eb3 b23c
000002e0: c02e f83c fb09 f5bd 43bf c0bd 30ed 34be
000002f0: 7dee 21bd eb67 49be ff7e dfbd 801e eabd
00000300: 3b94 01be 98a4 083e f424 373d 309f 0bbe
00000310: ee30 b2bd a76a 51bd 1fc6 31be d2ac bd3d
00000320: fb89 d3bd b513 b4bc 95f6 1dbe 9ef3 013e
00000330: 4742 643d 2c13 a7bd 6b12 54bd 6d55 d5bd
00000340: 6393 d2bc 185c fdbd aa10 acbd 5aeb 9c3d
00000350: 15fa 80bd 1923 35be 7fc9 38be 544e b7bd
00000360: 3df3 ec3d 84a5 3a3d a0ee d53d a897 683c
00000370: 2ac5 49bc 65e8 1c3e 7957 da3d c2fa 20bd
00000380: 7abf 023d 3a2c fbbd 7266 2dbe 8f3d 67be
00000390: 70d2 bf3c 392d 4b3d 9834 3f3d 637f 86bd
000003a0: b2c5 18be 8182 ca3b 8a4b 14be 87f1 09bb
000003b0: 862c 64be ae17 f0bd 0197 9fbd 4b43 683c
000003c0: 0e14 72bd 8ac6 0bbc 6d1d 74bd 03ef 00be
000003d0: 50e8 c33c c7d1 35be fd0e 1ebd f38a 883d
000003e0: c055 923d 3416 903b ae43 353d 8b03 d9bd
000003f0: b093 ad3c 88a3 0fbe 19fc 90bd cc01 d0bd
0.07904617 -0.00095455407 0.10423457 0.0872769 -0.016682215 0.14601938 -0.040250055 -0.13385496
-0.038017187 0.099699914 -0.05182703 -0.16860029 -0.20305319 -0.15213306 0.1420349 0.13922107
0.0283366 -0.08786649 0.02540519 -0.10704713 -0.017590405 -0.08041687 0.0788947 -0.020400722
0.048347984 -0.15378626 0.12894736 -0.14203168 0.0027813253 0.029739844 0.0945027 -0.094483756
0.10553937 -0.041663807 0.10133618 -0.062782064 -0.03400139 -0.11539684 -0.07135318 -0.06450981
-0.21509866 0.012995042 0.048181202 -0.18825807 -0.109996274 0.056388 -0.06904013 -0.063709155
-0.04526331 0.014595481 -0.071573704 0.080915295 -0.15286624 -0.075835094 -0.20258927 0.10982456
-0.12206069 0.023280837 -0.15068942 -0.21870899 0.043205548 -0.075188644 -0.09690265 0.08902777
-0.02987974 -0.08904807 0.024056206 -0.04957989 -0.14995775 0.044291224 -0.15827 -0.03143351
0.07365542 0.05722353 -0.07398886 -0.15079616 0.09875205 0.030356966 0.024513632 -0.05707611
-0.034159027 -0.010051308 -0.06826938 0.04594988 0.11492724 0.103204444 0.02534288 0.0014838597
0.031364594 -0.025697073 -0.19518945 0.09417381 -0.20176601 0.03562826 -0.19959278 0.037337333
-0.10675719 0.01439585 -0.022583464 0.05725651 0.001056839 -0.101941615 0.09113664 -0.034964465
0.020560138 0.008573271 -0.21413818 -0.046204977 0.06607301 -0.02124095 -0.00995188 -0.18102445
0.036348484 0.12073017 -0.050782662 -0.026346281 -0.04457224 -0.14253093 0.10406827 0.038503014
0.04870125 -4.433243e-05 -0.13171086 -0.13572945 -0.15844643 -0.055802975 -0.19811763 0.044238534
-0.01262963 -0.16143095 0.024328286 0.027174074 0.03720938 -0.093968734 -0.07668284 0.042189073
0.056827847 -0.09236368 0.092976026 0.05540505 -0.024615856 -0.010312907 -0.09394029 -0.14573643
-0.121550314 -0.12069183 -0.18552563 -0.092948996 0.11299712 -0.1802115 -0.0038067882 0.08355304
0.05699706 0.08168812 -0.1235947 0.025546463 -0.0673681 -0.015434054 -0.04491232 -0.1402666
-0.068780154 -0.20640577 -0.019095795 -0.20283891 -0.09423055 0.114232324 -0.11341787 0.045103166
0.06651392 -0.015563585 -0.027411398 -0.17432322 -0.20594297 -0.027853157 0.07534679 -0.14767045
-0.10174859 -0.12503277 0.049508188 -0.22006065 -0.0124905715 -0.1934291 -0.13950169 0.021814104
0.03029573 -0.11964794 -0.0941148 -0.17668605 -0.03953408 -0.19668548 -0.109128945 -0.11431599
-0.12654202 0.13344038 0.044712976 -0.13634944 -0.08700739 -0.051127102 -0.17360733 0.092614785
-0.10329052 -0.021982053 -0.15426095 0.12690589 0.05572727 -0.081579536 -0.051775377 -0.10416684
-0.025705045 -0.12371081 -0.08401616 0.07662077 -0.06297699 -0.1768917 -0.18045615 -0.08950487
0.115698315 0.045568004 0.10445905 0.014196314 -0.012315074 0.15323026 0.10661215 -0.03930164
0.031920888 -0.12264295 -0.16933611 -0.22582076 0.023415774 0.049603675 0.046681017 -0.06567266
-0.14919165 0.006180108 -0.14481941 -0.0021048503 -0.2228261 -0.117232665 -0.077924736 0.0141762
-0.059101157 -0.008531222 -0.059598375 -0.12591176 0.023914486 -0.17755805 -0.038588513 0.066671275
0.07145262 0.004397178 0.044253998 -0.10596379 0.021188587 -0.14027226 -0.07079334 -0.10156593

8.weight f4 [10, 2250]
00000000: 72a7 093d 52ef acbc badc 81bc 3036 73bd
00000010: bbe5 1ebc 75ab 78bd b62b acbc 8b9d 283c
00000020: ccf8 1dbd 8c05 bcbd 6d7e 1ebd 4d61 c53c
00000030: 7190 4c3c 9bd4 873d 805a 0bbe 7e81 813d
00000040: a588 3cbc c674 4abd cb66 0abd f74b 193d
00000050: f2c5 9bbb ea6c 19bd 4e79 babc d1c9 6d3d
00000060: ada8 c73c 934e 5bbd e79a 22bd a726 6fbd
00000070: 7986 0a3c 1180 a1bd 9389 7a3c e847 ed3c
00000080: cd25 1ebd f02d 6f3d c75a 063d 703c 91bd
00000090: 4098 713d 1603 263c c558 ac3d c81a 783d
000000a0: 3e0d a23d f33c c6bc 5696 36bc 82b6 f23c
000000b0: c4d9 bd3c fec9 763c 7af4 ce3b a730 4e3d
000000c0: e491 90ba a86e 283d 60eb 663d 0ad1 14bd
000000d0: 18c0 dd3b 08ad 75bd 9852 483c 221b d9bc
000000e0: fbcf 063d 16b9 413b f41b 6fbd ba5a 25bd
000000f0: 916b a5bb fccb c03c 358f ecbc 74e6 a3bc
00000100: b8af 173c 719a c6bd 7a94 b2bd a95f 59bd
00000110: 4954 88bc 39d0 5ebc b652 0cbd 3c15 8d3d
00000120: 7f87 3f3d 3a56 a1bd 065f 9fbc ee91 743d
00000130: 5a16 9c3c 1121 f1bc 5072 023e a4a1 ba3d
00000140: d56b 803b fdbe 8d3d 6c80 413d ee9d 133d
00000150: 9346 2cbd 39c7 d43c 668b 203d 20d5 72bd
00000160: 2c19 9dbd 2355 9ebd 36b5 ce3d 18a4 c93d
00000170: e75a 983d 524d 67bd 8771 033a ccfd 0e3d
00000180: 7e5f b73d 87b2 f23d 0846 293e e264 cb3c
00000190: 60a2 883d 3d45 c53d dc42 82bd 1e28 0cbe
000001a0: a1d7 d3bd bf3c 193d 1767 a4bc e2c6 4aba
000001b0: 60ee 213c 086d 99bd 8df8 3a3d a7ed 3c3d
000001c0: 9b69 81bd a98d c43d 7c5a ef3d fde9 583c
000001d0: 9351 fabb 6563 da3b f124 953c 8bad 9e3b
000001e0: 33a5 993c 1dcd f2bc 0a2f c2bc b74b 2b3d
000001f0: 01c1 9bbd 42c5 f8bb e15d cd3d d1e8 c2bc
00000200: a87a f63d e7c0 323d b9c8 1bbc 08e0 6f3c
00000210: 6181 06bb 340b 783d 0403 5fbc 9f0d 66bd
00000220: d53f d0bc 6a6e 2bbd 818d cb3d 2382 8a3d
00000230: 68e8 793d b08a 8abc 8861 9a3d 2cd4 283c
00000240: 1d5a 523d 6f29 14bd 7bda 2e3e 10d4 893d
00000250: 3ef4 8ebc 6c8f eebb 1e42 eebc 6f5b aa3c
00000260: d3b0 053d f866 de3d 290c 96bc 0358 fc3b
00000270: 6cfa be3c 2fc5 383d ac2e 03bd 7483 ae3c
00000280: 5d14 213d b811 243d c920 953d c481 1bbc
00000290: 2b10 5ebd c526 43bd b984 56bd eba4 5dbc
000002a0: 82fa 15be 089a 8ebc 0c9f 6a3c a70d 00be
000002b0: a909 fb3d 7785 f1bb 5e71 ec3c aa9c 063d
000002c0: 16c3 d53d d768 8dbd c5ef adbc 8395 6fbc
000002d0: c4ae ffbd 442b be3c b37a 06bd a201 a3bd
000002e0: 5a95 77bd bde4 813d fdc8 433d 60d8 363d
000002f0: f0cf 55bd 04a3 313c 3d16 4b3d b6d6 1fbb
00000300: 3f59 093d 2338 1c3d 1311 05bd 6bd3 03be
00000310: e3b3 81bd 32fc 1cbd f880 c53d a3ca e3bd
00000320: 350c 1f3b a5dd ac3d 2d6d 033c 7451 72bd
00000330: 6c07 b13d 7c43 553c 14e0 b3bd a6fd d73c
00000340: ddef 7d3d 441a bdbc b96b 04be 19d9 7f3a
00000350: 5672 2bbc 5c03 333d 02bf c03c 1b43 263c
00000360: cd8c 09bd 7c7d 8a3d ca08 e93d 950f d33c
00000370: 1301 313d f3c9 aa3c 7ac0 243d 9315 363d
00000380: 998d a4bd 1e2d bebd 52e7 ef3b 763a 233b
00000390: 2967 cc3c 069d da3c f832 5dbc 7a75 c7bc
000003a0: b8a3 433d ca78 cbbd 8e08 d1bc 6b1c 78bc
000003b0: f097 6bbd aaf0 b5bd 9d0c 393c 5fda b43c
000003c0: bdd7 de3c 11c7 873d d299 c83c c462 eb3c
000003d0: 20ed 823d 62ef 0f3e e531 733d 12eb 863d
000003e0: 7b18 d43c 5755 263d afdb ba3c b1ac 383d
000003f0: af24 853c b936 a43d 1201 d53d 6c07 4a3c
0.033606954 -0.02111021 -0.015852321 -0.05937785 -0.009698327 -0.06071039 -0.021016937 0.010291467
-0.03856735 -0.091807455 -0.038694788 0.024094248 0.012485609 0.06632348 -0.13608742 0.06323527
-0.011507188 -0.04942777 -0.033789437 0.03742596 -0.0047538215 -0.037457384 -0.02276292 0.058053795
0.024372423 -0.05354173 -0.039698508 -0.05838647 0.008454912 -0.07885755 0.015291589 0.028964952
-0.03861027 0.05839342 0.032801416 -0.07091606 0.058983088 0.010132572 0.08415369 0.060572416
0.07912682 -0.024198985 -0.011144241 0.029628042 0.023175128 0.015062807 0.006315765 0.050339367
-0.0011029807 0.041121155 0.056376815 -0.036332168 0.006767284 -0.05997947 0.012226723 -0.026502196
0.03291319 0.0029559783 -0.058376268 -0.040369727 -0.0050482233 0.023534767 -0.02887688 -0.02000735
0.009258203 -0.09697426 -0.08719726 -0.053069744 -0.016641753 -0.013599449 -0.034258567 0.06888816
0.04676008 -0.078777745 -0.01945449 0.059709482 0.019053627 -0.029434713 0.1273892 0.09112862
0.0039191046 0.06921194 0.047241613 0.036039285 -0.042059492 0.025973903 0.03919544 -0.059285283
-0.07670817 -0.07731082 0.10093157 0.098457515 0.07439213 -0.056470223 0.00050141703 0.03491001
0.089537606 0.11850458 0.16530621 0.024828378 0.066715956 0.09632347 -0.06360409 -0.13687178
-0.10343862 0.037411448 -0.020068688 -0.00077353243 0.009883493 -0.07491499 0.045647193 0.04612508
-0.06318971 0.09597332 0.116871804 0.013239381 -0.007639119 0.006664681 0.018206092 0.0048424653
0.018755531 -0.029638821 -0.02370407 0.041820254 -0.07605172 -0.0075918743 0.100276716 -0.023792656
0.120351136 0.043640997 -0.009508305 0.014640816 -0.0020523893 0.06055756 -0.013611559 -0.056165334
-0.025421062 -0.041853346 0.09939099 0.06763103 0.061012655 -0.016911834 0.07538134 0.010304492
0.05135547 -0.036172327 0.17075531 0.06729901 -0.017450448 -0.007280281 -0.029084262 0.020795552
0.032639336 0.108594835 -0.018316345 0.0077009215 0.02331277 0.045109924 -0.03202693 0.021302916
0.03932606 0.04005596 0.07281644 -0.009491388 -0.054214638 -0.047644395 -0.052372668 -0.013528089
-0.14646342 -0.017407432 0.014320146 -0.12505208 0.12257702 -0.0073706466 0.028862651 0.03286425
0.104376 -0.06904762 -0.021232495 -0.014623049 -0.12484506 0.02321399 -0.03283186 -0.07959296
-0.060445167 0.063424565 0.0477991 0.044639945 -0.052200258 0.010842089 0.049581755 -0.0024389452
0.033532377 0.038139474 -0.032486986 -0.12873618 -0.06333139 -0.03832645 0.096437395 -0.11122634
0.002426875 0.08440713 0.008021635 -0.05915971 0.08643994 0.013016578 -0.08782974 0.026366066
0.06199633 -0.023083813 -0.12931718 0.0009759828 -0.0104642715 0.043704376 0.02352858 0.010147835
-0.033581544 0.067622155 0.113786295 0.025764266 0.043213915 0.02084825 0.040222622 0.04445417
-0.0803482 -0.09285949 0.0073212767 0.0024906672 0.024951534 0.026686203 -0.013500921 -0.02434801
0.047763556 -0.09935148 -0.025516775 -0.015143494 -0.057517946 -0.08883794 0.011294511 0.022076784
0.027202481 0.06629766 0.02448741 0.028733619 0.06392884 0.14056161 0.059373755 0.06587805
0.02589058 0.04060873 0.022809831 0.045086566 0.016252844 0.0801825 0.10400595 0.012330871

8.bias f4 [10]
00000000: e39b 13be df29 6fbd bbd2 8d3d 8e48 d5bc
00000010: 266e 973d f68d ae3c b493 153e 0d25 0bbd
00000020: 41a1 42bc 8d88 c5bb
-0.14414935 -0.05838954 0.06924959 -0.026035573 0.07394056 0.021307927 0.14607126 -0.03397088
-0.011879266 -0.006028241
