logs/cifarmid/model.pth (torch, 752436 bytes, 26 tensors)

0.weight f4 [32, 3, 3, 3]
00000000: 4a73 bf3d 2eb9 fb3d b7fe ab3d b1d0 1dbe
00000010: f1e1 b7bd eef8 0ebd 2321 28be c491 0abe
00000020: 9d7b 3ebe 98d7 45bd 6593 b83d c656 e5bd
00000030: 0480 c83d 9e80 bfbd 8259 603d cbd1 bf3d
00000040: 4b23 243e eb49 c0bd 0f6e 2fbe d8f1 ccbc
00000050: 7666 413e f3f7 d33d dd89 a7bc 0fec a93d
00000060: ac32 33be cdc8 c33d a06c 3f3d 3cd1 a73d
00000070: c0bb 1fbd f83b 82bd ed85 973d da62 83bd
00000080: 332a 0e3e fcd9 0dbe f978 bd3c 11bc b23d
00000090: b170 603b f6bc 2fbe 1281 f0bc 784b 3d3e
000000a0: bdc1 cabd 4bbd 3e3e 9a91 babd dfbb e53d
000000b0: e72a c63d efc7 693d 8234 c0bd 97d2 abbc
000000c0: 9a2a 153e baa1 39be bbc4 78bc d53e 4c3d
000000d0: 39e8 f43d a884 273e 8b26 45bd 048f f63c
000000e0: 844e 2c3e 3809 04be def0 c5bd 2ea4 ff3d
000000f0: b60e 84bd 5a89 babd 7cef 8c3d c3cb 9c3d
00000100: 402b 253e 60f0 373d 2e19 e93d 0127 d23d
00000110: f7cc 83bd b2c5 333e 8ef8 263e 32a3 b4bd
00000120: ec2b 2bbd c385 dbbd 6c1b b43d c6bd 0cbe
00000130: 190c d63d faee a53c b509 2ebe 5441 1d3e
00000140: 8251 87bd 254e dfba 49ed 153e 9b0a 923d
00000150: 099b a7bc 3eb7 383e 506e 913d 0fce ddbc
00000160: ccd4 403d be39 a0bd 7d5f 08be 4d59 eebd
00000170: 4e65 2b3e 844b c7bd 6384 34be 0487 d13d
00000180: ead2 1a3e 7b30 373d 365a 073e 7bb7 f53d
00000190: 673e a8bd 07ac 43be 7325 89bb a9ef 10be
000001a0: b597 c2bd 085b 413e 34a8 eabd 8c05 213e
000001b0: c092 893c 3e92 8cbc d54c bb3d 5a67 f93d
000001c0: 87b3 d93c ab2d 42be 222e c53d 78a8 9abc
000001d0: 79af 803d 5205 25bd 4c7e 2fbd 6c75 f93d
000001e0: 9c1e 3fbe 8ece 09bd 0959 293e 3b5b 1d3e
000001f0: 90d8 543d 680c 95bc 77e5 0c3e 9591 5dbc
00000200: 47c1 10be e43f 33be 9529 183e e17c 3abe
00000210: 8f95 1ebe 3546 f33d 6daf 003e 9ca6 073e
00000220: 88d2 fcbd 9dfc 8eb7 3719 0dbe bf7b 9abd
00000230: 41c4 2abe 53ea 223e f3be 03be 5a0b 333c
00000240: 42b8 9b3c 875c 38be 9b2b e73d 8f35 2cbe
00000250: c221 b23d 53c6 1bbe 9cad 33be a5d8 9e3d
00000260: e5d8 893c a13f 07be f445 3bbe 8446 43be
00000270: 70f6 d73d f55a 1f3e 528a 0c3e b61b 963d
00000280: 5f76 aabd d09a a4bd 9335 f1bd 2868 c9bd
00000290: e3f6 3bbe aeb3 23be 6be6 2dbd a78b 37be
000002a0: 9d27 dbbb ca16 7b3d 695a db3d 1dfc 34be
000002b0: 81db 35bd 1391 9abd 295d 24be 8f15 0dbe
000002c0: 51e8 2c3e fd6f 3f3e f867 64bd 6c38 3cbe
000002d0: 2919 323e 5b68 2dbe eebd 1e3d 3b14 39be
000002e0: 66b8 0fbe 0f05 c03d 42a6 703d 9e7c 2ebe
000002f0: 8a88 23be c11f 16be c74f 263e c41c 393e
00000300: 080e 29bd 4936 3a3e fd4c a5bc 0c14 e6bd
00000310: f12b 133e d4a5 24be 7184 c63c 6d8d 0cbe
00000320: 751b b13c af83 243c ba1f a2bd cdcf 9dbc
00000330: 0e2a c03d 47ac f1bc c107 7bbd d0bc f6bc
00000340: 4b23 9c3d 4b7c 523c 0e97 873d 94c0 ff3d
00000350: 1767 9b3b 1519 3b3e a84e 05be b252 06bd
00000360: 78b5 323e 74ef 92bd e973 d9bd a55a 22be
00000370: f5ba 34be 14b3 333d bbc9 d23d 6718 3f3d
00000380: c339 8abd e6d2 e8bd e725 88bd 510e 21be
00000390: 456c efbc 3167 293e b6da 02be b710 e2bd
000003a0: 770c 13bd e6ab 15bd e9b2 be3c 8429 1fbe
000003b0: 49ae 04be 29ed b8bd f4a5 2b3e a901 253b
000003c0: 8a63 b0bd bf70 59bd 8d58 b1bd 9c11 ba3d
000003d0: 5e1a 96bd b7ca a0bc d732 333e e06d d4bd
000003e0: 7b3b 323e b6f0 3bbe 50ef 1ebe 4335 2f3e
000003f0: 74d1 01be 726e ccbc 61c5 1b3e 4023 02bd
0.093481615 0.122911796 0.083981924 -0.1541164 -0.08978642 -0.034905367 -0.1641889 -0.13532168
-0.18601842 -0.04830131 0.09012488 -0.11198191 0.09790042 -0.09350704 0.05477286 0.09366187
0.16029088 -0.09389099 -0.17131828 -0.025017664 0.18886742 0.10350027 -0.02045148 0.08296978
-0.17499799 0.09559784 0.046734452 0.08194205 -0.03899741 -0.063590944 0.07398591 -0.06415339
0.13883285 -0.13852686 0.023128973 0.08727277 0.0034246857 -0.17161927 -0.02935842 0.1848582
-0.09900234 0.18626897 -0.091098025 0.11217474 0.09676152 0.057075437 -0.09385015 -0.02097444
0.14567032 -0.181281 -0.015183623 0.04986461 0.119583555 0.16359198 -0.04813246 0.030097492
0.16826826 -0.12894142 -0.096650824 0.12482487 -0.064481184 -0.09108229 0.068816155 0.07656052
0.1612978 0.044906974 0.11381756 0.10261346 -0.06435578 0.17555884 0.16305754 -0.088201895
-0.041789934 -0.107188724 0.08794293 -0.13744268 0.10451526 0.020255554 -0.1699589 0.15356952
-0.06607343 -0.0017036839 0.14641298 0.07130929 -0.020459669 0.18038651 0.071011186 -0.027075795
0.04707794 -0.078235134 -0.13317676 -0.116381265 0.16737863 -0.097312 -0.17628627 0.1023083
0.1511952 0.04472397 0.13218006 0.11997887 -0.08215027 -0.19108592 -0.0041853725 -0.14153923
-0.09501592 0.18882382 -0.114578635 0.15724772 0.016793609 -0.017159577 0.09145514 0.12177916
0.026574863 -0.18962733 0.0962794 -0.01887916 0.06283469 -0.040288277 -0.042845055 0.121805996
-0.1866402 -0.03364425 0.1653787 0.15366833 0.051964343 -0.018194392 0.13759409 -0.013523479
-0.1413623 -0.17504841 0.14859612 -0.182117 -0.1548674 0.11878625 0.1256692 0.1324715
-0.12344843 -1.7045351e-05 -0.1377915 -0.07543134 -0.16676427 0.159097 -0.1286581 0.010927999
0.01900876 -0.18004046 0.11287614 -0.16817306 0.08697845 -0.15212373 -0.17546695 0.077561654
0.016827056 -0.13207866 -0.18288404 -0.19069868 0.10545051 0.15562041 0.1372464 0.07329504
-0.08323359 -0.08037341 -0.117777966 -0.09834319 -0.18355899 -0.15986511 -0.04245607 -0.17924367
-0.006688072 0.06130103 0.10710604 -0.17674299 -0.04439879 -0.07547202 -0.16051163 -0.13777755
0.16885497 0.18695064 -0.055763215 -0.18380898 0.1739241 -0.1693434 0.03875535 -0.18074124
-0.14035186 0.09375965 0.058752306 -0.17039725 -0.15970054 -0.1466055 0.1624137 0.1807738
-0.041273147 0.1818477 -0.020178312 -0.112342924 0.14372231 -0.16078883 0.024233075 -0.13725825
0.021619538 0.010041161 -0.079162076 -0.019264126 0.09383021 -0.029501094 -0.06128669 -0.03011933
0.07623919 0.012847017 0.06620608 0.12487903 0.004742514 0.18271287 -0.13018286 -0.03279371
0.17452037 -0.07174578 -0.10617811 -0.1585489 -0.17649443 0.043871954 0.10292383 0.04665413
-0.067492984 -0.11368351 -0.06647854 -0.15728118 -0.029226432 0.1654327 -0.12778744 -0.11038344
-0.03590056 -0.03654089 0.02327867 -0.1554318 -0.1295711 -0.0902961 0.16762525 0.0025177991
-0.086127356 -0.05308604 -0.08659468 0.0908539 -0.07329248 -0.019627912 0.17499863 -0.103725195
0.17405502 -0.18353543 -0.15520978 0.17110161 -0.12677556 -0.024955008 0.15212013 -0.0317719

0.bias f4 [32]
00000000: 7611 293e 8b0c edbd f9ec d03d b506 7d3d
00000010: e77a 043d 9ca7 043e c701 803c fc80 d23d
00000020: ec08 bdbb a6ca 2c3e 5a56 f53d 4255 a1bd
00000030: 72dd dd3d d80c f6bd ab2d cfbd 4c9e a23d
00000040: 50d0 9b3d 0147 00be efeb 2a3c 6795 063d
00000050: cb28 b9bd 2854 053d 0ac0 403e b6a8 9e3d
00000060: f608 eabd e5a8 33be 51a0 10bd b37c 233e
00000070: 8e1e a5bd 270c f23d d461 95bd 3970 423e
0.16510567 -0.11574658 0.10201449 0.061773974 0.03234377 0.12954563 0.015625848 0.10278508
-0.005768886 0.16874179 0.11979361 -0.0787759 0.10833253 -0.120141685 -0.10116132 0.07940349
0.07608092 -0.12527086 0.0104322275 0.032857325 -0.09040984 0.03255096 0.18823257 0.07747023
-0.114274904 -0.17544897 -0.03530914 0.15965538 -0.080624685 0.11818724 -0.0729405 0.18988122

1.weight f4 [32]
00000000: 0000 803f 0000 803f 0000 803f 0000 803f
00000010: 0000 803f 0000 803f 0000 803f 0000 803f
00000020: 0000 803f 0000 803f 0000 803f 0000 803f
00000030: 0000 803f 0000 803f 0000 803f 0000 803f
00000040: 0000 803f 0000 803f 0000 803f 0000 803f
00000050: 0000 803f 0000 803f 0000 803f 0000 803f
00000060: 0000 803f 0000 803f 0000 803f 0000 803f
00000070: 0000 803f 0000 803f 0000 803f 0000 803f
1.0 1.0 1.0 1.0 1.0 1.0 1.0 1.0
1.0 1.0 1.0 1.0 1.0 1.0 1.0 1.0
1.0 1.0 1.0 1.0 1.0 1.0 1.0 1.0
1.0 1.0 1.0 1.0 1.0 1.0 1.0 1.0

1.bias f4 [32]
00000000: 67a8 f0b0 5d63 27b3 1813 5633 e1e8 5c33
00000010: 4ba3 b832 066e e0b2 f50a c0b2 3f60 4432
00000020: 1924 63b2 2df5 a532 877d a432 aeb0 1db3
00000030: d022 92b2 d297 7133 93fb 31b2 8744 b131
00000040: c30b f532 1e2c 5c32 ac5d b7b1 13b5 8b32
00000050: 9351 8f32 ee52 6db2 e505 ddb2 e583 1132
00000060: 44d3 77b2 c219 8631 8623 c0b2 8c28 3631
00000070: 5c99 9e32 cd83 15b3 d566 97b2 3f54 a5af
-1.7510161e-09 -3.8973088e-08 4.9843123e-08 5.1434544e-08 2.1494676e-08 -2.6127065e-08 -2.2356724e-08 1.1430585e-08
-1.3221347e-08 1.9320021e-08 1.9149196e-08 -3.67151e-08 -1.7012468e-08 5.6250265e-08 -1.0359957e-08 5.1591686e-09
2.8527102e-08 1.28157165e-08 -5.3366502e-09 1.6264073e-08 1.6684487e-08 -1.3814072e-08 -2.5730467e-08 8.4701e-09
-1.44253285e-08 3.9028416e-09 -2.2367896e-08 2.6507534e-09 1.846336e-08 -3.4811638e-08 -1.7625476e-08 -3.0073186e-10

1.running_mean f4 [32]
00000000: 1461 853d eede fd3d 80a8 af3e e088 5b3e
00000010: 61ee 153e c83a 97be b06e 38bf 08bf 6d3e
00000020: 5996 09bf 9260 123d 3e72 0d3e e36b 0f3e
00000030: 0d0b 0f3e 84f8 f03c 5a17 633d 7740 56be
00000040: d329 1a3f e486 15bd 7fd5 123f 4c20 9d3e
00000050: 6196 a93d b1a4 3abe 7b2d f53e bcad eb3e
00000060: d375 e33e 1601 cb3e 16c0 d3bd f786 253f
00000070: 65e8 d03e 167d 0d3f b163 ad3d 7854 2e3e
0.06512657 0.12396036 0.34308243 0.21438932 0.14641716 -0.29537034 -0.72043896 0.23217404
-0.5374504 0.035736628 0.13813111 0.14006 0.1396906 0.029415376 0.05544219 -0.20923029
0.6022007 -0.036505595 0.5735702 0.30688703 0.082806356 -0.18226887 0.4788626 0.46030986
0.4442583 0.39649266 -0.10339372 0.64659065 0.40802303 0.5526899 0.0846628 0.1702441

1.running_var f4 [32]
00000000: 9d17 ff3b 8465 983c 39c1 853c 104a 133c
00000010: 2147 ad3b 53b2 283d 856e fa3d e5e4 033c
00000020: 66dd 833d 371a 6f3c 30c0 483b f1d3 9d3c
00000030: 758a 9d3b 9380 273c 8649 523c 3ce0 ad3c
00000040: 1b7f 763d 8669 093c 15b8 973d 7de9 ab3c
00000050: 2785 693c b6f6 543c b1cc b03c 9b6d 223d
00000060: 5e4a 983d ab1b 9c3d c2cc bd3b 8c72 603d
00000070: 5749 803d c9bf 433d 8ca0 653c 4330 9e3b
0.0077847973 0.018603094 0.016327487 0.008989826 0.0052880202 0.04118569 0.12228111 0.008050178
0.06438713 0.014593652 0.003063213 0.0192661 0.004807765 0.010223526 0.012834912 0.021225087
0.06017981 0.008386975 0.07408158 0.02098536 0.014252937 0.012998274 0.02158198 0.03965531
0.074360594 0.07622465 0.0057922313 0.05479674 0.062639885 0.047790322 0.014015328 0.0048275306

3.weight f4 [64, 32, 4, 4]
00000000: 16c8 39bc 7419 063d dfe1 e239 3a59 c43c
00000010: f508 e83c 855b 193d e1c9 86bb e3cb 273d
00000020: 1a2b 80bc c932 be3c a15e b1bc 9852 bdbb
00000030: 084b 5dbc 534d cdbc 5f42 bfba c6f7 c03c
00000040: 1b5b ee3c 686c 9039 4e6d 57bb fa9e 44bc
00000050: 9718 bebc 82e5 ba3c 50fe d8bb 6534 263d
00000060: 18bd e83c 130d 03bd 8acc d5bc b308 073d
00000070: 05d1 293d 05ad 913c 9fbb 243d aab7 d93c
00000080: e411 08bd 43ec 6cbb 5631 c53c 2f93 293c
00000090: 1aa0 e43c ac4d 28bd 6746 10bd 2a64 d5bc
000000a0: b860 14bd def5 8cbc 2008 293c f2b3 05bd
000000b0: 3b96 2ebd 8cfb b4bc 71a1 093d ca39 9dbc
000000c0: f403 083d bc98 f2bc 2a2e 563c 4b3d 96bc
000000d0: a880 263d 4982 a43c fab6 19bd c8c7 28bd
000000e0: fa20 87bc 1d73 1ebd 4b98 4a3c 6e4f 2e3d
000000f0: 771d 033d 578c 0ebd 1657 c1bc 73df 34bc
00000100: 78a8 7c3c 0de1 bdbc f98b dabb 481e 813c
00000110: 0839 353c a3b1 2abd d9d7 a2ba 8ad3 1c3d
00000120: 0a0d 9bbc 5f6a 2c3d 11cc 36bc 2dc0 293d
00000130: a526 14bd a6cf 15bd 8c84 283d 052a 993c
00000140: b059 123d 13fb dfbc a295 abbc 2330 333d
00000150: 3149 a4bc 78c7 1f3d 2bbb 103d 99e4 1d3d
00000160: af99 97bc 4ed8 953c ab6c ce3b 7290 1a3d
00000170: fcc3 3bbc e5d0 99bc 74be da3c c0cf b0bb
00000180: 6d18 17bd eeb8 03bd 3e8e 243d 991c 3cbb
00000190: 1d26 88bc 7ef7 cabc 16b8 ec39 fc71 9a3c
000001a0: a779 8d3c 1f0c ddbc b822 91bc 911f ec3c
000001b0: 52e5 a63c f692 32b9 c12c 3dbc 5eed 1abd
000001c0: d514 223d dff1 a53c 4e43 90ba a729 5e3c
000001d0: 1021 67bc 59b4 95bc ee53 123d 7730 813c
000001e0: 0bc9 5a3b 3c63 823b c433 90ba ca5f eebc
000001f0: 82f6 0a3d e62f d83c 27e3 94bc 471b b73c
00000200: 4dbf cabb 925e 0abc c5e2 54bc 9766 1fbd
00000210: f6a7 263d ce31 6c3b 3d31 ccbc 7d2d 2d3b
00000220: 050d 05bd dd61 b23b c859 c63c e346 533b
00000230: 1a05 b43c 14af 2cbd 5495 013d 8a23 1dbb
00000240: ac0f 633c c728 2bbd 0039 02bd afe5 233d
00000250: 1a01 a0bb d347 f03c e169 fb3c 273a 2c3d
00000260: 14b3 9539 8f0e 2ebd b464 e1bc ce62 823b
00000270: ca0c 36bc 8911 843c b9c3 20bd 6d8e 0dbd
00000280: defc 61bc b200 87bc fcf7 6ebc 1dd4 de3b
00000290: f162 d03c 0850 02bd 63ba 31bc 3552 feb9
000002a0: 29a7 293c a57b 203d fa19 01bd 7d52 03bc
000002b0: 1929 e8bc 2be0 06bd ddf4 1a3b 56f1 2e3c
000002c0: 59d7 8a3c ce62 1ebd 1c6d 24bb 0850 133c
000002d0: 9378 b13b 1ef8 693c 1805 a23c fff6 0d3d
000002e0: 5ef4 1dbc 96af e63c c414 9b3b c4e1 e8bc
000002f0: 38c9 1ebd 7b38 10bd 8ec0 343c 338c 223d
00000300: dfc8 b33c da71 81bc 869b 86bc 5590 4b3c
00000310: 782c 9d39 da4a 85bc 3272 033c 7971 acbc
00000320: c730 723c bbd4 18bd 653c a4bb 843d 43ba
00000330: 3d85 d43c 1635 d13c 7833 ba3c 3207 28bd
00000340: 93e1 a5bc 8a2d 46bc c55e 463c cc1a 2d3d
00000350: bab7 193c 31aa 873c 90af 04bd b00f c2bc
00000360: 1386 20bd 2fd7 24bd a169 1abd be05 25bd
00000370: 3983 3b3c eca0 d33b b238 7ebc 96f0 f0bc
00000380: 154f ed3b 8a9e 7a3c 06ff 7c3c 0423 22bc
00000390: 437a 423c 6ff1 cd3b 9797 a33c 636c 283d
000003a0: b43d 26bd 6943 203d 8807 90bc 30da 123d
000003b0: e5c1 8cbc 7160 c0bc 9477 38bc ada8 09bd
000003c0: 7708 043d 8830 9d3c 2386 9bba 7e83 47bc
000003d0: e84e 2f3d bfa8 1e39 a1f2 0abd 0de5 023d
000003e0: d359 0ebc 3613 eb3c 9e00 d13b 0378 d03b
000003f0: b70f 5f3c d297 fcba eea7 163d 3c1d 083d
-0.011339208 0.032739118 0.00043274366 0.023968328 0.028324584 0.037440795 -0.0041134213 0.040965926
-0.015645552 0.023217576 -0.021651568 -0.005777668 -0.013506658 -0.025061285 -0.0014591924 0.023555648
0.029096177 0.0002754659 -0.0032871547 -0.012000794 -0.023205085 0.022814516 -0.0066221133 0.04057731
0.02841048 -0.03199489 -0.026098508 0.03296728 0.041459102 0.017782697 0.040217992 0.026576836
-0.033220187 -0.0036151565 0.024071377 0.010350033 0.027908374 -0.0410897 -0.03522339 -0.026048739
-0.03622505 -0.017207082 0.010316879 -0.032642312 -0.04262374 -0.022092603 0.03360123 -0.019192595
0.033206895 -0.029613845 0.01307253 -0.018339774 0.04065004 0.020081656 -0.037528016 -0.04120615
-0.016495217 -0.038684 0.012365411 0.04255622 0.03201052 -0.034801807 -0.023601096 -0.011039603
0.015421025 -0.023178602 -0.006669518 0.01576151 0.011060961 -0.041673314 -0.0012423947 0.038287677
-0.018927116 0.04209363 -0.011157052 0.04144304 -0.036169667 -0.036574982 0.04114203 0.018696794
0.035730064 -0.027341401 -0.020945374 0.04374708 -0.020054432 0.039008588 0.035334747 0.038548086
-0.0185059 0.018291619 0.0062995753 0.03773541 -0.011460301 -0.018776366 0.026702143 -0.0053958595
-0.03688853 -0.032158785 0.040174715 -0.002870357 -0.016619736 -0.024776217 0.00045150582 0.01885318
0.017269922 -0.026983319 -0.01771675 0.028823646 0.02037302 -0.0001703015 -0.011546315 -0.037824027
0.03957065 0.020256935 -0.0011006386 0.013559735 -0.014107004 -0.018274473 0.035724573 0.01577018
0.003338399 0.003979115 -0.0011001755 -0.02909841 0.033926494 0.026390027 -0.01817472 0.022351874
-0.0061873556 -0.008445399 -0.012993519 -0.038916197 0.040687524 0.0036040428 -0.024925822 0.0026424818
-0.03248312 0.005443795 0.024212733 0.0032238297 0.021975089 -0.042159155 0.03163655 -0.0023977482
0.013858717 -0.041786935 -0.03179264 0.040013965 -0.004882944 0.029331123 0.030690135 0.042047646
0.00028552918 -0.042494353 -0.02751384 0.0039790636 -0.011111448 0.016121643 -0.039249156 -0.034559656
-0.013793198 -0.016479824 -0.014585491 0.006800188 0.025437804 -0.031814605 -0.010847661 -0.00048507904
0.0103547955 0.039180417 -0.031518914 -0.008015272 -0.02833991 -0.032928627 0.0023644485 0.010677656
0.016948389 -0.038668446 -0.0025089448 0.008991249 0.005415985 0.014280347 0.01977782 0.034659382
-0.009640781 0.028159898 0.0047327 -0.028427966 -0.038766116 -0.035210114 0.011032237 0.039684486
0.021946369 -0.015801359 -0.016431581 0.012424548 0.00029978505 -0.016271044 0.008022832 -0.021050202
0.014782137 -0.03731225 -0.0050120824 -0.0007447826 0.02594244 0.025538009 0.02272962 -0.041022487
-0.020249164 -0.012095818 0.012107556 0.042261884 0.009382183 0.016560646 -0.032393992 -0.023689121
-0.039190363 -0.040244278 -0.03769839 -0.04028868 0.01144486 0.0064583924 -0.015516447 -0.029411595
0.0072420933 0.015296588 0.015441662 -0.009896044 0.01186997 0.0062848846 0.019969745 0.04111899
-0.04058619 0.039126787 -0.017581716 0.03585261 -0.0171823 -0.023483487 -0.011258978 -0.033608127
0.032234635 0.01918818 -0.0011865537 -0.012177346 0.04279986 0.00015130917 -0.033922795 0.03195672
-0.008688408 0.028695684 0.0063782474 0.0063619628 0.013614587 -0.001927132 0.036781244 0.033231005

3.bias f4 [64]
00000000: 1aac a2bc 7d67 163d 7895 c1bc f59d 263d
00000010: ba64 08bd 0221 0e3d 8179 293d 8390 27bd
00000020: 4860 343b 9946 bcbc 7363 29bd f450 8b3c
00000030: d6f5 253d f18b e13c fe6e f03c 1b84 1a3d
00000040: 761d c73c 166d c73c 74c9 36bc e8a2 f93c
00000050: 5d92 2cbd 4a13 f2bc 877e 85bc c5f4 b1bb
00000060: e40c d1bc fa75 243d c53b 283d 0887 13bd
00000070: 309f 523b 617e 0a3c ec8a c03c 1699 c2bc
00000080: 2036 02bd 9d34 b1ba a880 d7bc c3de 25bd
00000090: 88d2 b5bc 5a81 0cbc 4fec 28bd 51f0 f23c
000000a0: 3090 f13c b85c 1cbc bae2 913b a998 313d
000000b0: 14fe b83b 3c73 1ebd 0b72 31bc d87b 913a
000000c0: 62bc e23c 4406 d6bc 855c 323d f4ea 0ebd
000000d0: cf5c fc39 68d6 5f3c c6f5 873c b54a e6bc
000000e0: 5b69 3a3c ee93 65bc d3e8 8dbc 809d 43bc
000000f0: d789 bebc ee5f 26bd 75f8 1d3d c12e ad3c
-0.019857455 0.036719788 -0.023630843 0.040677983 -0.033299185 0.034699447 0.04137564 -0.0409093
0.0027523208 -0.022982882 -0.041354608 0.017006375 0.04051765 0.02753255 0.0293498 0.03772364
0.02430604 0.024344008 -0.011156429 0.030473188 -0.04213177 -0.029550213 -0.016295685 -0.00543079
-0.025518842 0.040151574 0.041072626 -0.036017448 0.003213834 0.008452983 0.023503743 -0.023754638
-0.0317899 -0.0013519708 -0.026306465 -0.040495645 -0.022195116 -0.008575762 -0.041240986 0.029655607
0.0294877 -0.00954359 0.0044520767 0.04335848 0.005645523 -0.038684115 -0.010830413 0.001109953
0.027677719 -0.026126035 0.043545265 -0.034892038 0.00048134333 0.013661958 0.016596686 -0.028111795
0.011377658 -0.01401232 -0.017322933 -0.011939406 -0.023259087 -0.04061883 0.038567025 0.021140458

4.weight f4 [64]
00000000: 0000 803f 0000 803f 0000 803f 0000 803f
00000010: 0000 803f 0000 803f 0000 803f 0000 803f
00000020: 0000 803f 0000 803f 0000 803f 0000 803f
00000030: 0000 803f 0000 803f 0000 803f 0000 803f
00000040: 0000 803f 0000 803f 0000 803f 0000 803f
00000050: 0000 803f 0000 803f 0000 803f 0000 803f
00000060: 0000 803f 0000 803f 0000 803f 0000 803f
00000070: 0000 803f 0000 803f 0000 803f 0000 803f
00000080: 0000 803f 0000 803f 0000 803f 0000 803f
00000090: 0000 803f 0000 803f 0000 803f 0000 803f
000000a0: 0000 803f 0000 803f 0000 803f 0000 803f
000000b0: 0000 803f 0000 803f 0000 803f 0000 803f
000000c0: 0000 803f 0000 803f 0000 803f 0000 803f
000000d0: 0000 803f 0000 803f 0000 803f 0000 803f
000000e0: 0000 803f 0000 803f 0000 803f 0000 803f
000000f0: 0000 803f 0000 803f 0000 803f 0000 803f
1.0 1.0 1.0 1.0 1.0 1.0 1.0 1.0
1.0 1.0 1.0 1.0 1.0 1.0 1.0 1.0
1.0 1.0 1.0 1.0 1.0 1.0 1.0 1.0
1.0 1.0 1.0 1.0 1.0 1.0 1.0 1.0
1.0 1.0 1.0 1.0 1.0 1.0 1.0 1.0
1.0 1.0 1.0 1.0 1.0 1.0 1.0 1.0
1.0 1.0 1.0 1.0 1.0 1.0 1.0 1.0
1.0 1.0 1.0 1.0 1.0 1.0 1.0 1.0

4.bias f4 [64]
00000000: 6ec9 d234 1cd1 3d34 0f91 7c34 278f a334
00000010: e02e f2b3 4c3b b9b4 bdb4 dbb4 f79f a734
00000020: f108 9fb4 8ed8 07b5 f21b c534 45e9 1434
00000030: 8291 4934 438a d8b4 9a84 2634 f8f3 17b3
00000040: 4105 b9b2 52e7 5c34 aebe d434 f810 47b4
00000050: 2876 7cb5 0fb1 5033 7717 cd32 abf1 04b5
00000060: df59 83b4 66a0 deb4 bacf 34b5 9f36 4a35
00000070: f3ed 6534 0e4e 3eb5 4f76 2e35 5725 3334
00000080: da0e 6db4 e2f4 9e32 7865 3b35 023f 28b4
00000090: 961a cd34 9299 beb3 b324 d834 05f4 6734
000000a0: 8c1f 60b4 1dd7 eb34 54ad 3434 4043 11b5
000000b0: 40c0 14b2 6658 3033 f8c2 d0b0 e220 a1b4
000000c0: 71d9 fb34 e0c4 2134 6f91 0532 d4dd 9e34
000000d0: 7022 bc34 4315 f131 1373 b132 1c86 2b35
000000e0: d335 8f34 2aa3 87b2 fe26 27b4 bb10 fd33
000000f0: 95a6 4cb5 5753 8433 c3b0 9ab5 0785 ed33
3.9262108e-07 1.767807e-07 2.3522101e-07 3.0465273e-07 -1.127753e-07 -3.450208e-07 -4.0923433e-07 3.1222564e-07
-2.9622564e-07 -5.060655e-07 3.6714442e-07 1.3868437e-07 1.8772519e-07 -4.0333734e-07 1.5508195e-07 -3.5379315e-08
-2.1539224e-08 2.057325e-07 3.9626815e-07 -1.8539492e-07 -9.4049255e-07 4.8589808e-08 2.3875812e-08 -4.9525505e-07
-2.446604e-07 -4.1467428e-07 -6.735751e-07 7.533035e-07 2.1413852e-07 -7.08941e-07 6.4992213e-07 1.6684258e-07
-2.2077748e-07 1.850498e-08 6.9810585e-07 -1.5669141e-07 3.820357e-07 -8.875499e-08 4.0259837e-07 2.1602325e-07
-2.0873102e-07 4.3928677e-07 1.6826863e-07 -5.411457e-07 -8.658446e-09 4.105859e-08 -1.5189405e-09 -3.0012512e-07
4.6910603e-07 1.5065916e-07 7.774687e-09 2.9591195e-07 3.5042785e-07 7.0164403e-09 2.0657842e-08 6.389762e-07
2.6674988e-07 -1.5790267e-08 -1.5567272e-07 1.1784274e-07 -7.623833e-07 6.1618884e-08 -1.1525339e-06 1.106037e-07

4.running_mean f4 [64]
00000000: a2b9 e4bc 2354 193d 7d10 e3bc cfab 5b3d
00000010: 5083 d3bc b062 0a3d 7dbe c73c bdc5 1ebd
00000020: a7c0 bd3b 918d eebc 6c80 2ebd c06b 9b3c
00000030: 5199 063d b8fe 973c 6688 6d3c 5bce 2d3d
00000040: 3082 fe3c 726f 9c3c 23ad e43a 2734 ca3c
00000050: dafe fdbc 5f70 02bd 2af4 3bbc 24a2 d43b
00000060: 4bbe 49bc c75c 1e3d 7513 363d 9070 02bd
00000070: b080 033c 2277 943c f8e7 c13c 3b02 9abc
00000080: e081 efbc d6fa a13a 8c5f 1bbd 1c14 39bd
00000090: 1cf2 b8bc 2763 5dbc be68 36bd 1624 073d
000000a0: dde3 303d 78c1 7ebc bdd3 253b 32c2 373d
000000b0: 658a e03b a0e1 42bd 35bb 0a3c 7c48 43bc
000000c0: 3c85 b63c d2f1 51bc 27df 1e3d d80b eabc
000000d0: 84f6 f8bb 3542 903c debf 893c 62ba fbbc
000000e0: 4d6e c03c 0e72 5ebc c2f1 a4bc 43ac 3ebb
000000f0: c61c 73bc f273 22bd 4787 1c3d 208b 443c
-0.027920548 0.037433755 -0.027717823 0.053630646 -0.02581945 0.033785522 0.024382824 -0.038762797
0.005790788 -0.029120238 -0.04260294 0.018972278 0.032861058 0.018554077 0.014497852 0.042433124
0.031067938 0.01909611 0.0017446618 0.024683071 -0.031005312 -0.031845447 -0.0114717875 0.006489055
-0.012313436 0.038662698 0.04445215 -0.03184563 0.008026287 0.018123213 0.023670182 -0.018799892
-0.029236734 0.001235808 -0.037932917 -0.045185193 -0.022576384 -0.013512409 -0.044533484 0.0329934
0.043186057 -0.015549056 0.0025303208 0.044862933 0.0068524354 -0.047578454 0.008467485 -0.011919137
0.022280328 -0.012814002 0.038787033 -0.0285701 -0.0075977463 0.017609695 0.016815122 -0.030728523
0.023490096 -0.013576997 -0.02013481 -0.0029094375 -0.014838403 -0.039661355 0.038214948 0.011996061

4.running_var f4 [64]
00000000: c4c8 e73a 649a d93a 6332 da3a 0c96 de3a
00000010: cc3d d83a 4de7 d83a 77aa e33a 05e0 db3a
00000020: 232a de3a 4a88 e03a 96cf d93a f250 d73a
00000030: 351f f13a 0150 f13a e4d7 093b 3524 dc3a
00000040: 14cc da3a e0bc d83a 76ca e53a 490d e53a
00000050: 8fe8 dd3a a9db dd3a 6047 dd3a 7abc e13a
00000060: 89e3 df3a 4f4a de3a cf9f e03a 0bac db3a
00000070: d6c9 d73a a0b2 dc3a e9f2 da3a 6a1e da3a
00000080: 61ad d73a 2974 e43a 3f1f f13a d540 ed3a
00000090: c820 d93a 9320 d83a 27a2 d83a 551d d73a
000000a0: 376e fd3a 7cba e33a fa02 db3a b89c d83a
000000b0: 3dff e03a 2f97 e43a b868 063b 9e30 ef3a
000000c0: 6807 d93a ce7d e23a d139 eb3a 0985 d93a
000000d0: 2c79 e13a dd0f de3a a61e dd3a 4413 d83a
000000e0: 1c18 e13a 2934 de3a 0396 de3a dc30 e13a
000000f0: c475 db3a f452 d83a bc07 fd3a 86fa dd3a
0.0017683734 0.0016601798 0.0016647096 0.0016981973 0.0016497909 0.0016548425 0.0017369528 0.0016775137
0.0016949814 0.0017130461 0.0016617652 0.0016427322 0.0018396141 0.0018410684 0.0021033222 0.0016795459
0.00166929 0.0016535781 0.0017531652 0.0017475273 0.001693027 0.0016926426 0.0016882233 0.0017222308
0.001708136 0.0016959402 0.001713747 0.0016759647 0.001646335 0.0016837902 0.0016704473 0.0016641144
0.0016454869 0.0017429638 0.0018396153 0.0018100986 0.0016565556 0.00164892 0.0016527817 0.001641194
0.0019335215 0.0017374302 0.0016709261 0.0016526198 0.0017165911 0.0017440076 0.0020509195 0.0018248742
0.0016557993 0.0017279924 0.0017946308 0.0016595434 0.001720225 0.0016941983 0.0016870096 0.0016485234
0.0017173323 0.0016952801 0.0016981963 0.0017180699 0.0016743471 0.0016504214 0.0019304673 0.0016935624

6.weight f4 [32, 64, 4, 4]
00000000: 36fb dd3b abb1 963c d5c6 29bc f3d3 6d3c
00000010: cf33 6a3c 9d98 92bb 7118 fabc 4746 5e3c
00000020: c5e6 a63c 7cfd 123c 1720 e83c 1937 ce3c
00000030: 2533 e5bc 8b84 e1bc 89c9 28bc 2ebb 8b3c
00000040: 0241 3fbc 97e9 ed3c 3744 cc3c 6a45 083b
00000050: 97bc 943c 5d07 7b3b b36a 7fbb 5760 df3c
00000060: ec5e 2c3b 0335 3e3c f5e2 9ebc 94dd 8e3a
00000070: cf09 753c 4392 d7bb 9d9f 27bc ec1c a6bc
00000080: f433 0dbc 506b 8dbc 8091 fbbb 7a70 c83c
00000090: 55de 77bc c560 8aba 8159 80bb 7ef4 b43a
000000a0: 3677 b53c 3076 9fbc 3d1a fcbc 1352 c8bb
000000b0: 93b8 763c 330f 8fbb db64 a13c 34b6 983c
000000c0: 63e4 21bb 2854 923c 3ca1 bcb9 c7e3 edbc
000000d0: ee35 9cbc cabd e73c 2460 b3bb 6f72 983c
000000e0: 77d2 a4bc 6b3f a5bb 15ac 893c 7936 32bb
000000f0: 7c46 98bb ae39 22bc f076 d7bc 886a 063b
00000100: aea4 dc3c 4c9d b93c d4e9 763c b89a 92bc
00000110: 609a b03a e953 eabb bc32 3abc 7937 f9bb
00000120: 81ad 8e3b 9378 4e3b 6455 f1bc 0d71 82bc
00000130: 9827 223c 8dbb b7bc e2e6 c83c c47c f73c
00000140: 1fc8 093b e803 30bc df1d 893a 182d 87bc
00000150: 0c59 9ebc b0c7 6c3b 053f f63c ad60 b1bc
00000160: becb 59ba 6d4e 98bc 17ce dc3b c88d cbbc
00000170: 526c 853c cd5c b93c bc3a aebb aa75 ed3c
00000180: 6041 b0b7 8691 f63c 3c0e 0bbc a510 ff3c
00000190: 762a 6e3c d694 be3c 7adb 393c 5e7d 213a
000001a0: 8ab3 3e3b 1492 9abc a675 a9bb 18fb 06bc
000001b0: 89bd 09bc c29d dc3b 0b55 f03c 504e cf3b
000001c0: e424 083c 1a5e 2e39 f588 923a 3e1a 8939
000001d0: 0b23 933c 85ee 8cbc 3b74 983c 5433 b9bc
000001e0: 48f3 ef3c 829f 78ba e711 cb3c ebd1 663c
000001f0: bedf babc 77d1 9a3c 8a32 b2bb 24d5 5bbc
00000200: 128c aabb 4e84 98b8 fb1c d2bc 8b0c b6bc
00000210: 3612 edbc eff7 933b c47c bfbc c72c 6b3c
00000220: 158d 1dbc 1355 bf3c fd98 b13b 601d d6bc
00000230: 7ba2 693c a6f9 8ebc 07b0 403c 1859 b8bc
00000240: c40c 683c 32c0 eebc aa23 b9bc 04e8 9239
00000250: 3869 d63c 8226 f93c 6c5e 07bc 4e28 d1bc
00000260: 9d65 91bc 736d 343c 200e fa3c 562c e9bc
00000270: f0e8 32bc b554 463a 9f32 1f3c bd97 dfbb
00000280: a628 e13c e7cc cf3b 5d8f 973c 478f b1ba
00000290: 83be 683c 76a8 b7bc 8b13 cdbb 8f8b 9b3c
000002a0: 2368 debc 7439 6abb efc3 913c e1d1 93bb
000002b0: 4902 953c ab92 f43c 0539 db3c 3584 e33c
000002c0: 1c53 fd3c 6878 023c 0814 ab3b 50be 89bc
000002d0: b4e5 143c b873 11bc 56b1 b6bc c493 173c
000002e0: a000 4c3c c8e7 febc f076 cebc 32cd c43c
000002f0: 8041 b23c 1e12 8ebc 7007 cd3c 0ee9 4ebb
00000300: 1f92 abbc e3b3 bf3b f2b5 413c cb8b cdbc
00000310: 8519 c23b d2a7 32bc 2411 5ebc fda8 dc3c
00000320: 49b5 c5bc 03cb 8f3b 18af b6bc bb7c eabc
00000330: 825f 49bc 2b85 e7bc 3475 013b adec 70bc
00000340: 192b 86bc 1b48 c6bc de04 71bc 2d3a c43c
00000350: 2c67 efbc e6fb 36bb ad2a 68bc 0869 32bc
00000360: 5d6e 933b 35b9 31bb 8496 ea3c cf3e 4a3c
00000370: af5d 403c 63b6 87bc 0f6b f03b 24c3 a33c
00000380: 714d 9f3c 1ead 443c 4b38 e63c 97f0 c1bc
00000390: 342e d0bb 063e 203c 574d ea3c c381 ccbc
000003a0: c030 b639 59c1 22bc e331 9abb 4e9d d93b
000003b0: 19c1 a43c 6148 9b3c 4d5d e43c b449 1ebc
000003c0: bec7 e2bc 1fd7 613b b958 e73c 1984 a1bb
000003d0: 0a34 103a 1b03 32bc d034 69bc 3326 9c3c
000003e0: 1b6c 913c cba3 c13c 100c 553b c1bd 35bc
000003f0: 8e8a c23c d895 363c f8fb 54bc ba66 e43c
0.0067743314 0.018395266 -0.010362347 0.014515865 0.014294579 -0.0044737593 -0.030529233 0.01356656
0.020373711 0.008971568 0.028335614 0.025172757 -0.02797849 -0.027529022 -0.010301956 0.017057028
-0.011673214 0.029042048 0.024934871 0.0020793327 0.018156333 0.003830395 -0.003897351 0.027267618
0.0026301695 0.011609319 -0.01939533 0.0010899776 0.014955952 -0.006578715 -0.010230926 -0.020277463
-0.008618344 -0.017263085 -0.007677257 0.024467696 -0.015128692 -0.0010557404 -0.0039169197 0.0013805775
0.02215157 -0.019465536 -0.03077423 -0.0061132996 0.015058654 -0.0043658256 0.019701412 0.018641569
-0.002470278 0.017862394 -0.00035978283 -0.029039277 -0.019068684 0.02828874 -0.0054741073 0.018609254
-0.020119889 -0.0050429604 0.016805688 -0.0027193113 -0.0046470743 -0.009901447 -0.026301831 0.0020510275
0.026933994 0.022658013 0.015070397 -0.017896041 0.0013473742 -0.007151116 -0.011364635 -0.00760549
0.0043541794 0.0031504973 -0.029459663 -0.015923047 0.009897135 -0.022428298 0.024524156 0.03021086
0.0021023822 -0.010743119 0.0010461173 -0.016500995 -0.01932957 0.0036129765 0.030059347 -0.021652544
-0.0008308253 -0.018592084 0.006738435 -0.02484788 0.016287003 0.022627259 -0.0053170603 0.02898677
-2.1011278e-05 0.030098688 -0.00848728 0.031135866 0.014536491 0.02326433 0.011343831 0.0006160344
0.0029098713 -0.018868484 -0.0051714955 -0.008238576 -0.008407005 0.0067326734 0.029337427 0.0063264742
0.008309577 0.00016628989 0.0011179732 0.00026150228 0.017961046 -0.017203579 0.01861011 -0.022607483
0.02929081 -0.0009484218 0.02478881 0.014088134 -0.022811767 0.018898709 -0.0054381536 -0.013417516
-0.005204686 -7.2725685e-05 -0.025648585 -0.022222778 -0.028939348 0.00451564 -0.023374923 0.0143539375
-0.009616156 0.023355996 0.005419849 -0.026137054 0.01425993 -0.017453026 0.011760718 -0.02250342
0.0141632 -0.02914438 -0.022600014 0.00028020155 0.02617322 0.03041387 -0.008262258 -0.025531914
-0.017748648 0.011012423 0.030524313 -0.028463524 -0.010919794 0.0007565723 0.009716659 -0.0068235085
0.027485203 0.006341565 0.018500978 -0.0013546728 0.014205578 -0.022419196 -0.006258433 0.018987445
-0.027149266 -0.003573981 0.017793624 -0.0045111035 0.018189566 0.029855093 0.026760587 0.027773002
0.030923419 0.007963277 0.005220894 -0.01681438 0.009087969 -0.008877687 -0.022301357 0.009251539
0.012451321 -0.031116381 -0.025203198 0.024023626 0.021759748 -0.017342623 0.02502796 -0.0031572017
-0.0209437 0.0058503016 0.011823164 -0.025091073 0.0059234523 -0.010904269 -0.013553891 0.026936049
-0.024134295 0.0043882146 -0.022300288 -0.02862393 -0.012290837 -0.028261742 0.0019753696 -0.014704865
-0.016377972 -0.024204304 -0.014710633 0.023953522 -0.029224 -0.002792114 -0.014170331 -0.010889299
0.0044992403 -0.0027118449 0.028636225 0.012344076 0.011741086 -0.016566461 0.007336981 0.019990511
0.019446107 0.012004165 0.028103014 -0.023674292 -0.006353164 0.009780413 0.028601332 -0.024964219
0.00034750067 -0.009933793 -0.004705654 0.0066410666 0.020111607 0.018955411 0.02787652 -0.009661127
-0.027683135 0.0034460498 0.028240548 -0.0049290773 0.00055009185 -0.010864998 -0.014233783 0.019061184
0.017751744 0.023637673 0.003250841 -0.011092604 0.023747709 0.011144124 -0.012999527 0.027881015

6.bias f4 [32]
00000000: d8d2 333c e05a 283b 0071 3bba 889c 9b3b
00000010: 34ed 5f3c e016 d73a 2450 bb3c 04cf 29bc
00000020: 0209 823c 46da d9bc f466 533c 90d6 3ebb
00000030: 5066 183b ecd7 93bc 8852 f9bb 841d 32bc
00000040: bafc adbc b878 d03c 229a d53c 04d7 71bc
00000050: 4cef 793c 0090 c4b9 5cd1 a2bc a457 b73c
00000060: c8fa c23c 3889 1a3c f08a 5b3c 906b 25bc
00000070: 2862 d53c 5084 e2bc 24f1 013c 1876 43bc
0.010975562 0.0025688931 -0.0007150322 0.0047488846 0.0136673935 0.0016410016 0.022865362 -0.010364298
0.015873436 -0.026593339 0.012902964 -0.0029119588 0.0023254342 -0.018047296 -0.0076087154 -0.010871295
-0.021238673 0.025448188 0.026074473 -0.014760736 0.015254807 -0.00037491322 -0.019875221 0.022380657
0.023801222 0.00943213 0.0133998245 -0.010096446 0.026047781 -0.027650982 0.007931028 -0.011930011

7.weight f4 [32]
00000000: 0000 803f 0000 803f 0000 803f 0000 803f
00000010: 0000 803f 0000 803f 0000 803f 0000 803f
00000020: 0000 803f 0000 803f 0000 803f 0000 803f
00000030: 0000 803f 0000 803f 0000 803f 0000 803f
00000040: 0000 803f 0000 803f 0000 803f 0000 803f
00000050: 0000 803f 0000 803f 0000 803f 0000 803f
00000060: 0000 803f 0000 803f 0000 803f 0000 803f
00000070: 0000 803f 0000 803f 0000 803f 0000 803f
1.0 1.0 1.0 1.0 1.0 1.0 1.0 1.0
1.0 1.0 1.0 1.0 1.0 1.0 1.0 1.0
1.0 1.0 1.0 1.0 1.0 1.0 1.0 1.0
1.0 1.0 1.0 1.0 1.0 1.0 1.0 1.0

7.bias f4 [32]
00000000: dc0e 2f37 c694 f7b6 042a 8b36 8d18 d1b3
00000010: 48fd 4ab4 8988 46b5 2ebe 0eb7 c3ca d635
00000020: 85ce e2b5 47b1 9eb6 cc78 5c37 560a 00b7
00000030: 2d4b 20b5 e2fe a936 f4c5 33b7 fc40 2836
00000040: 98d3 23b7 1e35 8eb6 abc4 1ab7 0806 03b7
00000050: 9eef f134 e941 5836 ddb3 2f37 e9a1 42b7
00000060: 8897 cf36 b45a 0836 3194 ae36 7701 cbb6
00000070: 28e0 b136 37b2 5437 6aa5 8cb7 d8c8 40b5
1.0434273e-05 -7.378493e-06 4.147414e-06 -9.736787e-08 -1.8904859e-07 -7.395943e-07 -8.508139e-06 1.6003254e-06
-1.6898417e-06 -4.7294047e-06 1.3141147e-05 -7.631801e-06 -5.971404e-07 5.0662647e-06 -1.0715321e-05 2.5071777e-06
-9.764823e-06 -4.2381134e-06 -9.224906e-06 -7.809613e-06 4.5064093e-07 3.2224873e-06 1.04726905e-05 -1.1600999e-05
6.1867213e-06 2.0318375e-06 5.202856e-06 -6.050042e-06 5.3011063e-06 1.2677679e-05 -1.6766327e-05 -7.181784e-07

7.running_mean f4 [32]
00000000: 6726 373c e554 273b df04 24ba 4390 9a3b
00000010: f8ef 603c 7f0f ea3a 2924 bd3c dea7 26bc
00000020: e013 833c c406 d7bc 3b42 583c d748 49bb
00000030: 7c12 1c3b 547e 95bc 5841 fabb f4e7 36bc
00000040: 8d3a b0bc 67c8 cf3c 8af3 d03c 0a8a 78bc
00000050: bf86 713c 0cff 89b9 0902 a4bc 0e55 b83c
00000060: 8404 c63c 90ad 183c 1332 5d3c 2d61 2cbc
00000070: e0a8 d63c 94b4 e3bc 3e87 053c 61e2 44bc
0.011178589 0.0025532779 -0.00062568294 0.0047169044 0.013729088 0.0017857401 0.023088532 -0.010171859
0.016000688 -0.026248343 0.013199384 -0.0030713582 0.0023814728 -0.018248715 -0.007637184 -0.0111637
-0.021512294 0.025364114 0.025506753 -0.01516963 0.014741599 -0.000263207 -0.020020502 0.022501495
0.024172075 0.009318724 0.013500708 -0.010521215 0.026203573 -0.027796067 0.00814992 -0.012016864

7.running_var f4 [32]
00000000: 35fe d33a 3804 d43a d9ff d33a 25ff d33a
00000010: 35ff d33a af00 d43a 76ff d33a 4ffe d33a
00000020: c301 d43a eb09 d43a 63ff d33a 7bff d33a
00000030: f3ff d33a a204 d43a 5cfe d33a ca00 d43a
00000040: ce00 d43a 5bff d33a 4e02 d43a 6901 d43a
00000050: 5203 d43a 2002 d43a 3600 d43a e201 d43a
00000060: e302 d43a 4d00 d43a 5c04 d43a 6f00 d43a
00000070: 2c03 d43a 9400 d43a e000 d43a 19ff d33a
0.0016173782 0.0016175574 0.0016174271 0.0016174061 0.001617408 0.001617452 0.0016174156 0.0016173812
0.0016174841 0.0016177272 0.0016174134 0.0016174162 0.0016174301 0.0016175697 0.0016173827 0.0016174552
0.0016174556 0.0016174124 0.0016175003 0.0016174737 0.0016175306 0.001617495 0.0016174379 0.0016174878
0.0016175177 0.0016174406 0.0016175616 0.0016174446 0.0016175262 0.0016174489 0.0016174577 0.0016174047

9.odefunc.fc1.weight f4 [32, 1568]
00000000: cf5e b43c c90a 6d3c 7e11 1ebc c7e5 1f3a
00000010: 15b5 bbbb 5182 5ebc ed81 0e3c 3876 873c
00000020: 4018 883c 377d 56bc d326 833b ca45 af3c
00000030: 62e4 9a38 e322 c73c 45a3 e13b 7979 19bb
00000040: f441 ca3b f055 693c 3429 98bc dd64 923b
00000050: d056 1fbb d6ca b5bc 667d 9ebc 72c2 803c
00000060: 7953 14bc 9fb4 beba be4c 9f3c 951c adbc
00000070: 0d62 55bc 3767 2bbc bc4a a03c 1a9e ccbb
00000080: 6750 7c3c ffe2 0c3b 4ba5 bb3c b708 543a
00000090: 6881 02bc 2aca 89bc 8efe 26bc 9416 923a
000000a0: e130 9f3c e188 c8bb 67d3 1ebc 2c49 8dbc
000000b0: 2187 05bc 9f52 c93c 865b b83c 0efd 6e3c
000000c0: ab50 a6ba 7a30 2d3a 4744 a3bc 2b8c 2eba
000000d0: 7807 cdbc 7dc4 1cbc 06f5 6fbc c8d1 aebc
000000e0: 783e 153c dbd4 be3c 170b 953c 13f7 483c
000000f0: 0832 82bc d8f3 e83b 60be 45bb ad3a bfbb
00000100: 770e 743c af48 87bc c6c1 8bbb a4f0 c03c
00000110: 9dcb 223c 9f5e c1bb f7e9 f6b9 b155 9ebc
00000120: bf99 6ebc c34a 8dba 7e52 46bc 74c4 68bc
00000130: c208 8e3c 00e8 50bc 90ed 5f3b edcb cd3c
00000140: 80f5 8939 7801 36bc 43e1 c1bb 43ae cb3c
00000150: cc3e aa3c a3ac 313c 42a7 743b c73f 2b3b
00000160: 295a 74ba 691d ac3c e5af b9bc 2ad3 963c
00000170: 7a23 b33c c8da 85bc 89d1 5fbc 529d 243c
00000180: d688 88bc 319c 12bc 9dc6 843b b01f 953c
00000190: bd1d e6b8 fb7c 2a3c 7f74 ec3a cf13 0bb9
000001a0: e740 f13b 3738 3e3c dd9f 28bc 6cc5 de3b
000001b0: 0d9f bbbb 217c a33c 8852 ccbc b334 4ebb
000001c0: beca d33a 36f7 513c a58f 613c 7a3e cf3b
000001d0: c567 6b3c 6cad 16bc 99f5 c3bc 65ed e43a
000001e0: 1aa3 b93c cbb6 643c 775e 1abc a377 bdbc
000001f0: af56 043c 5367 503c 6cdf 173a 1219 d23b
00000200: fd34 2e3c 18c2 8dbc 73e2 103b 29c1 a43b
00000210: 3e5b 31bc eea4 c23c 0430 27bc 07af 363c
00000220: 2535 66bc 7016 46bc 4e41 52bc ef46 1e3c
00000230: a9d2 5e3c 825f 97bc eaf2 bf3c b80e c3bc
00000240: 6c10 28bb 2a2f 843c 14bb 243c f9d0 b93a
00000250: 42eb 9dbc e2b7 3cb9 cef5 aa3c c417 273c
00000260: 16f0 773c e8b2 9abc 4a13 6fbc 2299 893b
00000270: 35fa b4bc 0042 113c 6b4c 7b3c 4dae cd3a
00000280: caef acbc 90fc 86bc 2aad 80bb 3c7c 743c
00000290: 309a c7bc f957 35bc fe16 dfb8 86ba 6a3b
000002a0: 7ce4 1e3c 91ec b2bb 494a 38bc 332c 3dbc
000002b0: 202a 7dbc efa4 c7bb 0290 17bb d53d 00bc
000002c0: d3e2 b3bc 3b01 b0bb 6e69 4bbc 996d 813c
000002d0: 9d2b 243c 1885 c8bc 8cf6 cb3c 4312 2fbc
000002e0: 138f e83b 8ccf 3c3c e601 f6bb 41e2 3bbc
000002f0: 8806 a23c 7f37 b1bc 7d78 5b3c 5dbb 113c
00000300: fb87 803a cf3f 1b3b 04dd 0c3c 9ae5 a9bc
00000310: 25a3 8fbc abac 303c c745 86bc 1562 86bc
00000320: b050 3bbc 6ba9 a7ba e706 113b 21aa 82bc
00000330: 7406 53bc d429 adbc 4f31 a2bb 039f b8bc
00000340: 6387 bd3a 32ca 9abc 8b71 f63a 9696 8d3c
00000350: e225 803c d065 873c 832e 6a3c 00a8 2abc
00000360: 7d11 973c a0b5 853c 6f64 cabc 83e4 843c
00000370: 5650 9f3c a08e 523c b784 6dbc 1140 bbbc
00000380: c1e8 d43b 1cb6 b3bc d9e7 9fbc bbcb a8bc
00000390: 1945 bbbc 7c2e b0bc 0d66 5f3c bc53 d2bb
000003a0: 1987 98bc 825f 79bc 70d0 9f3c 4ff1 323b
000003b0: 54fd 293c f693 b13c d57f 6ebc d80f fabb
000003c0: 0add 833a 0998 683c 1515 34bc f038 db3b
000003d0: baba 6d3c 57e8 8cbc b8fe 5dbc d4b9 3c3c
000003e0: cebb c2bc e97a 7abc 70c6 f239 d566 00bc
000003f0: f48a a9bc 7974 d83b f0bd 93bc 639e a3bc
0.022017865 0.014467903 -0.009647725 0.0006099608 -0.005728374 -0.013580875 0.008697969 0.016535863
0.016613126 -0.013091377 0.004002431 0.021395583 7.385832e-05 0.024308627 0.0068859183 -0.002341835
0.006172413 0.0142416805 -0.018574335 0.0044675902 -0.002431322 -0.022191446 -0.019346904 0.015717719
-0.009053105 -0.0014549679 0.019445773 -0.021131793 -0.013023865 -0.01046162 0.019566886 -0.006244433
0.015400029 0.0021497605 0.022905966 0.0008088457 -0.007965423 -0.016820032 -0.0101925265 0.0011145645
0.019432487 -0.006119833 -0.009693957 -0.017246805 -0.008149893 0.02457553 0.02250458 0.0145867
-0.0012688836 0.000660665 -0.019930018 -0.000665846 -0.025027975 -0.009568331 -0.0146458205 -0.021340266
0.009109132 0.023294857 0.018193765 0.012265938 -0.015892997 0.0071091466 -0.0030173287 -0.005835852
0.014896027 -0.01651415 -0.004265043 0.023552246 0.0099362405 -0.0059011723 -0.00047095094 -0.01932797
-0.014563023 -0.0010779727 -0.012104629 -0.014206994 0.01733816 -0.012750626 0.0034168698 0.025121653
0.00026313588 -0.011108749 -0.005916746 0.024863368 0.020781897 0.010844382 0.0037331139 0.0026130544
-0.0009321296 0.021010118 -0.02266688 0.018411238 0.021867502 -0.016339675 -0.013660797 0.010047274
-0.016666811 -0.008948372 0.004051997 0.018203586 -0.00010972794 0.010405774 0.001804009 -0.00013263452
0.0073624733 0.011610082 -0.010292021 0.006798437 -0.0057257474 0.01995665 -0.024941698 -0.0031464517
0.0016158444 0.012815287 0.013767158 0.0063245865 0.014368002 -0.00919662 -0.023920821 0.0017465769
0.02266078 0.013959597 -0.009421936 -0.023128336 0.008077308 0.012719947 0.00057934853 0.00641168
0.010632751 -0.017304465 0.002210763 0.0050279093 -0.0108249765 0.023760285 -0.010204319 0.011150128
-0.014050757 -0.01209031 -0.012832953 0.009660467 0.01360003 -0.018478159 0.02343126 -0.02381073
-0.0025644554 0.01613577 0.0100543685 0.0014176659 -0.019277219 -0.00017997579 0.020869162 0.010198537
0.015132925 -0.018884137 -0.014592001 0.004199163 -0.022091964 0.008865833 0.015338044 0.0015692204
-0.021110434 -0.016477853 -0.0039268928 0.014922198 -0.024365515 -0.011068338 -0.00010637751 0.0035816743
0.00969803 -0.00546033 -0.01124818 -0.011546182 -0.015451938 -0.0060926597 -0.0023126607 -0.007827242
-0.021958744 -0.0053712404 -0.012415273 0.01579933 0.010020164 -0.024477527 0.024897836 -0.010685506
0.007097134 0.011524092 -0.0075075505 -0.011467517 0.019778505 -0.021632908 0.013395426 0.008894769
0.000980615 0.0023689156 0.008597616 -0.020739365 -0.017533848 0.010783355 -0.016390694 -0.016404191
-0.011432812 -0.0012791579 0.0022129358 -0.015950264 -0.0128799565 -0.02113811 -0.0049497257 -0.02253676
0.0014459904 -0.018895242 0.0018802149 0.017283719 0.015643064 0.01652804 0.014293316 -0.010416031
0.018440956 0.016321957 -0.024706094 0.016222244 0.019447487 0.012851387 -0.014496974 -0.022857698
0.006497473 -0.021937422 -0.019519733 -0.020604959 -0.022860097 -0.02150654 0.013635171 -0.0064186733
-0.018619107 -0.015220525 0.01950857 0.0027304476 0.01037534 0.021676999 -0.014556845 -0.0076312833
0.0010060382 0.014196404 -0.0109913545 0.006690137 0.014509851 -0.017200632 -0.013549499 0.011518914
-0.023771193 -0.015288093 0.00046305684 -0.007837017 -0.02069614 0.0066056815 -0.018034905 -0.019972986

9.odefunc.fc1.bias f4 [32]
00000000: d11c b73c 5f2f 9a3c 9125 bf3c 4d09 e33a
00000010: d31f 0a3c 503d 023c e94d 94bc 5b98 7e3c
00000020: df55 893c 2ba6 ab3c 665b 213b b1c2 2e3b
00000030: e876 813c 04e1 2b3c 1a9e 1fbc e5bc 643c
00000040: 0d84 bebc 31aa b43c 644f 993c 2987 4fbc
00000050: 2a39 823b b050 c63c bf35 52bb 7313 043c
00000060: cbc6 10bc 0255 22bb a029 223c 7fa4 44bc
00000070: 9751 42bc 4867 173c 1420 fd3b 47b1 caba
0.022352608 0.018821416 0.023333343 0.0017321497 0.008430439 0.007949188 -0.018103557 0.015539254
0.01676458 0.020953258 0.0024621128 0.0026666338 0.01580377 0.01049066 -0.009742284 0.013961052
-0.023256326 0.02205381 0.018714614 -0.012666502 0.0039740996 0.024208397 -0.0032075492 0.008061278
-0.008836458 -0.0024769907 0.0098976195 -0.01200211 -0.011860273 0.009240933 0.0077247713 -0.001546421

9.odefunc.fc2.weight f4 [32, 32]
00000000: 5291 823d 3d87 273d d3c3 923d 8508 273e
00000010: 26b3 2dbe 2403 9bbb 5a4d 0bbe cb36 e2bc
00000020: baef c53d 8eb0 b1bd 57dc 8cbd 6b96 cabd
00000030: e3f0 a7bc d374 4bbd ab09 f43d bc09 8c3d
00000040: 7bf1 09bd a3f1 0fbe 2d14 043e 19a0 fe3d
00000050: 66b7 d3bd 396a e53d ed05 2ebe 85a9 c7bc
00000060: a2c1 aebd 7909 ebbd 89ac e0bd 8263 adbd
00000070: 879f 52bd af99 413d 0890 323e 0292 ff3d
00000080: 64b2 15be ea4a 173e abc2 96bc c948 c4bd
00000090: 93ac a33d e79b 7a3c fdc6 9d3d 39fa 183c
000000a0: 9ed7 e7bc 7328 abbd c4ce a7bc 3a5b 5e3d
000000b0: b1dd 91bc c5b9 e2bd d029 8f3d 7e19 343d
000000c0: 1b30 043d 4c5f c73d c718 c1bd 4988 333e
000000d0: 5db4 d7bc e078 32bd 8244 8dbd 428e 50bd
000000e0: 20f9 883b fb9d ffbd 4269 c2bb 486e e33c
000000f0: 442f 2ebd 3747 32be 678d 153e 5df6 e9bd
00000100: d968 84bd 4c12 0d3e e6b4 b43c 3e42 6dbd
00000110: 8441 a83d 35e1 073e 1275 f03d 4a31 eb3d
00000120: e6a6 bebc 2143 d0bd 3522 153e 9baf 34bd
00000130: d4bc d33d 0e27 fc3d 249a 2d3e af6c 3c3d
00000140: ce87 34be 7aec 15bc 6344 80bd bc85 a3ba
00000150: 5478 d13c 7805 57bd 1202 ae3c 179f d8bd
00000160: d80d 90bd 33cb 093e 5ab3 8e3c e4d8 b73d
00000170: 5a11 c43d f194 493d 0765 0fbe e5c9 e3bd
00000180: 09a1 883a 9664 0d3e 7539 f53d 6b36 56bd
00000190: ba20 dabc 5803 d63d 94b4 163d 30b0 4ebd
000001a0: 03c0 eebc a043 2e3e dc29 3fbc b180 f3bb
000001b0: bd08 18be 8e80 cfbd 22ff 2e3d 7843 d7bc
000001c0: c914 e23c 0120 e83d fddd 08be 5ed4 21be
000001d0: 956d 08be 65b1 ad3d 3d50 ea3d b8fb 323e
000001e0: 5314 883d ba2a 24be 0f61 f03d 6400 773d
000001f0: 0516 4fbd ba31 813d 897b a03d e185 aa3c
00000200: 7771 29be 55f8 663d d616 f43d 5e9d d63c
00000210: d85f d83b 8be0 aabd b0ef 883d c46c 95bc
00000220: 8a84 e4bc c849 14bd 3de2 163e 031f 923d
00000230: 40b1 24be b829 88bd f409 d9bd 74ac 9dbd
00000240: d82a dd3d 9696 2abe 8adb 10be b089 6dbd
00000250: 4d74 413d f515 5d3c 3668 ac3d e1ee 933d
00000260: 1744 0d3e 1e72 143e 2736 0ebe 1bea 343e
00000270: c314 bfbc 7132 33be e74e 2b3e 9624 773d
00000280: 66c4 bc3c d9ce 063d e9d1 45bd fbeb d93c
00000290: 152d 70bd 6088 fbbd a845 603d ff93 ca3d
000002a0: e0cc 5fbb 8f44 b23b 1c17 5c3d 1aa9 0bbc
000002b0: 60a8 2f3e 8791 8f3c d8c7 e43d dbb8 e7bc
000002c0: 8fec 913d caa9 0fbd 64de e5bd 82e9 863d
000002d0: 8031 06be 1783 28be 283b 5abd f475 87bc
000002e0: edfa e93d 5943 1ebe 3024 0c3d d3de dd3d
000002f0: 4029 c9bd 6838 2dbe 8b2c 4dbd de48 be3b
00000300: cff5 b63d 435c c23d 14d5 df3d e9d7 96bd
00000310: a84f 0abe 3e31 113e 0f7a f93d 386a b4bd
00000320: cb32 593d ade1 433d 02ae 0f3e 2cd2 5cbd
00000330: 2689 0e3e 069c b9bd a2f3 113d 5e36 103e
00000340: f71c 14be ab05 ca3d 413e 923d 5c91 c0bd
00000350: 5a0e e53d 5b14 04be 147d 07be cef1 343c
00000360: b8f6 43bd abc7 1fbe 3ab9 1dbe 6bec 343e
00000370: a391 babd fa14 10bd bf89 453c 332d d73d
00000380: c049 b33c a606 df3b 04b9 493d 00cc 03be
00000390: 4a2d d33d 7efb 1bbe 8117 22be 56d9 2b3d
000003a0: ed25 9dbd f445 b5bd 1c1b 6abc 0737 29be
000003b0: 4b6c 1c3d b95b 26be d455 c3bd c4da 4abb
000003c0: 8c05 d03d 27eb 08bd 06bf d93d 6855 263d
000003d0: eae2 1f3e 7664 703d baf7 a3bd b608 073e
000003e0: 4bae 1cbe f174 56bd 5085 f33d fac0 16be
000003f0: 8b46 70bd da79 2fbe f4bc df3d 6352 15be
0.06375374 0.040900458 0.07166257 0.16311844 -0.16962871 -0.004730599 -0.13603726 -0.027614018
0.09664865 -0.08676253 -0.06877964 -0.09891971 -0.020500606 -0.04967196 0.119159065 0.06837794
-0.03367756 -0.14057021 0.12898321 0.1243288 -0.10337715 0.11201901 -0.16994448 -0.024372825
-0.08533026 -0.11476416 -0.109704085 -0.08466245 -0.05142167 0.047265705 0.17437756 0.12479021
-0.14618832 0.14774671 -0.018403372 -0.09584195 0.079919 0.015295959 0.0770397 0.0093370015
-0.028301056 -0.083573245 -0.020484336 0.05428622 -0.017805906 -0.11070589 0.06990397 0.043969624
0.03227244 0.09734973 -0.09428554 0.17532457 -0.026331121 -0.043572307 -0.068978325 -0.050916918
0.0041800886 -0.12481304 -0.005932958 0.027762547 -0.042525545 -0.17409979 0.14604722 -0.11423943
-0.064653106 0.13776511 0.022058915 -0.0579245 0.08215621 0.13269503 0.117410794 0.114840105
-0.023272943 -0.10169054 0.1456383 -0.044112783 0.103387505 0.123121366 0.16953331 0.046002086
-0.1762993 -0.009150619 -0.06263044 -0.0012475769 0.025570072 -0.05249545 0.021241222 -0.10577219
-0.070338905 0.1345642 0.017419506 0.089769155 0.09573622 0.049214307 -0.14003383 -0.11122493
0.0010423969 0.13807902 0.1197385 -0.05229799 -0.026626933 0.104498565 0.036793306 -0.050460994
-0.029144293 0.17017984 -0.011667695 -0.0074311127 -0.14847083 -0.10131942 0.042723782 -0.026277289
0.027597802 0.11334229 -0.13365932 -0.15803668 -0.13323052 0.08481101 0.114410855 0.17478836
0.066445015 -0.16031924 0.117372625 0.060303107 -0.05055811 0.06308313 0.078360625 0.020815792
-0.1654719 0.05638917 0.11918418 0.026198085 0.0066032223 -0.083436094 0.06686342 -0.01824034
-0.02789523 -0.036203176 0.1473474 0.07134821 -0.1608324 -0.06648582 -0.105976015 -0.076989084
0.107991874 -0.16659006 -0.14146248 -0.057992637 0.047230054 0.0134940045 0.08418314 0.07223297
0.13795505 0.14496657 -0.13887845 0.17667429 -0.02332533 -0.1749971 0.16729318 0.060337625
0.023042869 0.03291211 -0.04829589 0.026601782 -0.058636744 -0.12281871 0.05475393 0.09891509
-0.0034149215 0.0054403017 0.053732976 -0.008524204 0.17154074 0.017525448 0.1117093 -0.028286388
0.07125198 -0.035074033 -0.11224058 0.06587507 -0.1310482 -0.16456257 -0.053279072 -0.016535737
0.114248134 -0.15455379 0.0342142 0.10833516 -0.09822321 -0.16916049 -0.050091308 0.0058070263
0.08933603 0.09490254 0.10929313 -0.073654 -0.13506949 0.1417894 0.12181484 -0.08809322
0.053026956 0.047822643 0.14031222 -0.053911373 0.13919505 -0.09062962 0.035632737 0.1408324
-0.14464174 0.09864362 0.0714078 -0.09402725 0.11184378 -0.1289839 -0.13231307 0.011043979
-0.04784271 -0.15603511 -0.1540269 0.17668311 -0.09109809 -0.035176255 0.012056767 0.10506668
0.021885753 0.0068062125 0.04924871 -0.12870789 0.103113726 -0.15232655 -0.15829279 0.041955315
-0.076732494 -0.08851233 -0.01428869 -0.16524898 0.038189214 -0.16245927 -0.09537855 -0.0030953148
0.10157308 -0.033427384 0.10632138 0.040608793 0.15613905 0.058689557 -0.080062345 0.13186917
-0.15300862 -0.052357618 0.11890662 -0.14722052 -0.058661025 -0.17136326 0.10924712 -0.1458221

9.odefunc.fc2.bias f4 [32]
00000000: 7688 bfbc 45b4 053e f770 b93d f0db 21bd
00000010: 4d1c 5c3d 6f8f 84bb 839b 463d c8c0 59bd
00000020: aa90 80bd bfea b3bd 10bd 773d 3c93 313e
00000030: eb7e 233e e68c 193e da82 cc3d 598f 03be
00000040: db56 fbbd 94c7 3a3d 6db9 dfbc 3c9b 25bd
00000050: eed3 23be cbc1 1ebe 6d63 25bd c837 7cbc
00000060: 49b5 223d b90e f3bd 4fb8 f0bd 810c af3d
00000070: b1e2 34be a192 aabb bd40 2ebd 7057 c63d
-0.0233805 0.13057049 0.090547495 -0.03951639 0.053737927 -0.004045419 0.04848815 -0.053162366
-0.062775925 -0.08785009 0.06048304 0.17341322 0.15966384 0.14995155 0.099858955 -0.12847652
-0.12272426 0.04560049 -0.027310098 -0.040431246 -0.15998814 -0.15503614 -0.040378023 -0.015394159
0.03972367 -0.118680425 -0.11753904 0.08547307 -0.17664601 -0.005205468 -0.042542208 0.09684646
