logs/cifar1/model.pth (torch, 163043 bytes, 18 tensors)

0.weight f4 [4, 3, 3, 3]
0.42298776 0.63318 0.45107993 0.28350404 -0.025802722 0.067504056 -0.31518948 -0.30196697
-0.4087855 0.02283923 0.38542575 0.16771992 -0.030579817 -0.2345937 -0.0641335 -0.5525298
-0.34951344 -0.30036035 0.16683975 0.1665277 0.055861462 0.1404693 0.001692515 0.1327256
-0.22555032 -0.29340386 -0.19672166 0.02401648 -0.20101067 0.033869218 -0.35738274 -0.12315692
0.04243369 -0.42041364 0.022782385 0.38844904 0.0039825686 0.03783569 0.4006383 -0.009212989
0.2005646 0.53719264 0.18324189 0.43684694 0.39518505 -0.38440916 -0.32459307 -0.1699086
-0.36692563 -0.36890632 0.1332208 -0.45813927 -0.21700813 0.308146 0.31931376 0.05810008
0.17811102 0.00743594 -0.29881173 0.08234807 -0.24443701 -0.22634569 -0.23527078 0.03128598
-0.21509418 0.12537503 -0.25566822 -0.2186133 -0.2946521 -0.21739987 -0.31150314 -0.16381994
-0.15042286 0.046837837 -0.023354713 -0.13542534 0.12042856 -0.016253393 -0.13497745 -0.030095045
0.15675189 -0.31720978 -0.25192985 -0.41898707 -0.5070139 -0.25958222 -0.44328082 -0.33910906
-0.16158602 -0.3703184 0.19084762 0.17551775 0.32247895 0.16660047 0.1868607 0.18995023
0.1804606 -0.022277238 0.204827 -0.040673442 0.23310651 0.2839446 0.27923986 0.19797496
0.3979418 0.16722932 0.105848715 0.19371788
00000000: da91 d83e 1618 223f f3f3 e63e 7127 913e
00000010: 3b60 d3bc 913f 8a3d 8460 a1be 6a9b 9abe
00000020: 554c d1be 5619 bb3c 8656 c53e c5be 2b3e
00000030: 8682 fabc 5539 70be 6d58 83bd 9872 0dbf
00000040: 6df3 b2be d5c8 99be 0ad8 2a3e 3d86 2a3e
00000050: fdce 643d 2fd7 0f3e 61d7 dd3a 38e9 073e
00000060: aaf6 66be 0839 96be 6771 49be 36be c43c
00000070: bed5 4dbe 73ba 0a3d dffa b6be b239 fcbd
00000080: f3ce 2d3d 7540 d7be 20a2 ba3c cbe2 c63e
00000090: 3580 823b 99f9 1a3d 7720 cd3e 14f2 16bc
000000a0: ce60 4d3e 7585 093f c3a3 3b3e 67aa df3e
000000b0: b255 ca3e 47d1 c4be 1031 a6be 85fc 2dbe
000000c0: addd bbbe 4ae1 bcbe 096b 083e 3b91 eabe
000000d0: 6137 5ebe 50c5 9d3e 187d a33e 59fa 6d3d
000000e0: bc62 363e 30a9 f33b dafd 98be 1ba6 a83d
000000f0: b24d 7abe 2ac7 67be d3ea 70be ba25 003d
00000100: a641 5cbe 5062 003e f2e6 82be 2adc 5fbe
00000110: a4dc 96be 129e 5ebe 577d 9fbe 6ac0 27be
00000120: 7308 1abe 08d9 3f3d 6252 bfbc f1ac 0abe
00000130: 40a3 f63d d625 85bc 8737 0abe e289 f6bc
00000140: 9183 203e 5269 a2be f3fc 80be 7985 d6be
00000150: aacb 01bf f6e7 84be b4f5 e2be b49f adbe
00000160: ce76 25be 609a bdbe 8f6d 433e edba 333e
00000170: f61b a53e 5099 2a3e 6958 3f3e 5082 423e
00000180: aaca 383e c17e b6bc 2bbe 513e 3299 26bd
00000190: 79b3 6e3e 3061 913e 87f8 8e3e f3b9 4a3e
000001a0: 07bf cb3e 2a3e 2b3e 36c7 d83d fb5d 463e

0.bias f4 [4]
-0.11426423 0.015669616 -0.17846933 0.14541814
00000000: 5d03 eabd 915d 803c aac0 36be 7ee8 143e

1.weight f4 [4]
1.4828323 1.5477617 1.1790613 1.4199396
00000000: 73cd bd3f 0e1d c63f 7beb 963f 95c0 b53f

1.bias f4 [4]
-0.012305569 0.024656383 0.47784406 0.16098318
00000000: 4c9d 49bc 2ffc c93c faa7 f43e c6d8 243e

1.running_mean f4 [4]
-0.19115749 -0.050559334 -1.1574714 0.2148215
00000000: cabe 43be 4e17 4fbd 0628 94bf 2bfa 5b3e

1.running_var f4 [4]
0.15811792 0.107316546 0.22478035 0.1720349
00000000: aae9 213e c7c8 db3d d22c 663e eb29 303e

3.weight f4 [4, 4, 4, 4]
0.104258 -0.047114935 -0.016370572 0.02996051 -0.010655473 -0.0026321986 -0.0666712 0.12638927
0.15549181 0.15882514 0.09085515 0.032999247 0.015861494 0.10393215 0.02278493 0.026050838
-0.14689611 -0.014415483 -0.12512042 0.082075424 -0.13822569 -0.06879928 -0.016889015 -0.047151733
-0.15951735 -0.11337375 -0.29300004 -0.2112642 -0.15835674 -0.2370568 -0.17037517 -0.19072227
-0.007899515 0.26490518 0.16736448 0.015078394 -0.044141684 0.33025727 0.18958221 -0.09538831
0.03540165 0.16622977 0.2141877 -0.05399067 -0.17872189 -0.072313346 -0.11494877 -0.13051155
-0.09560235 -0.11376536 0.053255014 -0.21092108 0.1679107 0.27795777 0.33186257 -0.014851639
0.2428476 0.36512947 0.32397646 0.23241973 -0.020079872 0.11517458 0.13564979 0.16634528
-0.010180681 -0.027010698 -0.10435988 0.0017786069 0.19930224 0.09450401 0.0202606 -0.037406057
0.13363965 -0.055440534 0.020982789 -0.09289785 -0.052902725 -0.014621885 0.05810328 0.09797906
-0.06616684 -0.32073313 -0.30953783 -0.07266034 -0.22226384 -0.40733495 -0.28822112 -0.13598616
-0.22825688 -0.25093436 -0.3776823 -0.30863696 -0.0038646627 -0.2108052 -0.17875314 -0.08589334
-0.19424844 -0.10483563 -0.055933997 0.2077605 -0.14744148 -0.26864097 -0.05970428 -0.067121975
-0.26243782 -0.10926225 -0.20220725 -0.13551207 -0.10520138 -0.1596786 0.03383971 -0.029402664
-0.16537334 -0.08009401 0.014958295 -0.19464263 0.112595946 0.12552364 0.003545094 -0.045050483
0.005104174 -0.04660049 0.084921494 -0.052734792 0.047014836 0.095902584 0.14137343 -0.098089375
-0.020533876 -0.043014754 -0.10080764 -0.10481514 0.0019297084 -0.08723245 -0.11489605 0.07949191
0.037181623 -0.013658013 0.020327082 -0.07517466 -0.027150512 -0.010423213 0.028434562 -0.08956336
0.016002938 -0.12015586 0.08521615 0.029661404 0.007619331 0.05230277 -0.041717246 -0.08391035
-0.03360448 -0.12798138 0.027957741 -0.08763326 -0.03979389 0.08889076 0.019285487 0.060248952
0.0080497265 -0.033397365 0.048415087 -0.049067862 0.119408816 -0.060604226 -0.07133656 -0.07338593
-0.07761439 -0.09556974 -0.048743427 -0.077233024 -0.1426218 0.016396232 0.06007935 -0.006638222
0.18548146 0.18732212 0.11752482 0.13059802 0.14887537 0.063925184 0.12839344 0.27462265
0.20221691 0.22497682 0.13395676 0.097148515 0.2512136 0.18153985 0.16464001 0.19492927
0.045560393 0.12183208 0.19970778 0.13379402 0.08701718 0.24499604 0.39815545 0.12643471
0.23218733 0.36004278 0.2123052 0.2978082 0.25527272 0.2919469 0.14913839 0.14526954
0.016842052 0.07482799 0.23191723 0.04938747 -0.053902276 -0.10259332 -0.18529536 -0.14290445
-0.07924775 -0.08222061 -0.017976493 0.045509398 0.016520882 -0.052521043 0.15873583 0.015113131
-0.3439886 -0.2782498 -0.10707517 -0.41226757 -0.124052085 0.17735928 0.08494223 -0.1524958
0.12595731 0.33111444 0.43184528 0.18758257 -0.16214077 0.23399074 0.18763134 -0.022139579
0.062308617 0.042386487 0.12109063 -0.00365091 -0.042370062 0.11113789 0.111365624 0.17714193
0.15355916 -0.05143497 0.053503923 -0.017022055 -0.047278687 -0.20941134 -0.1952124 -0.10119788
00000000: 3885 d53d 97fb 40bd 941b 86bc be6f f53c
00000010: 4b94 2ebc f780 2cbb e98a 88bd 306c 013e
00000020: 3f39 1f3e 0fa3 223e 4412 ba3d 382a 073d
00000030: f7ef 813c 61da d43d 76a7 ba3c 9168 d53c
00000040: ef6b 16be eb2e 6cbc 911f 00be 2917 a83d
00000050: 098b 0dbe a3e6 8cbd d55a 8abc 2d22 41bd
00000060: 8458 23be 7f30 e8bd 1a04 96be a455 58be
00000070: 4528 22be 05bf 72be d476 2ebe b34c 43be
00000080: f86c 01bc a7a1 873e 9861 2b3e 5e0b 773c
00000090: e9cd 34bd 7b17 a93e d721 423e f25a c3bd
000000a0: 5201 113d 2338 2a3e 0554 5b3e 5225 5dbd
000000b0: df02 37be 0519 94bd 436a ebbd d2a4 05be
000000c0: 2acb c3bd d0fd e8bd ee21 5a3d b2fb 57be
000000d0: c8f0 2b3e 7b50 8e3e e4e9 a93e 4a54 73bc
000000e0: 0bad 783e 40f2 ba3e 3ee0 a53e 70ff 6d3e
000000f0: 8b7e a4bc a6e0 eb3d c7e7 0a3e 6b56 2a3e
00000100: dfcc 26bc 8a45 ddbc a2ba d5bd 2520 e93a
00000110: e315 4c3e 528b c13d 8ff9 a53c 1837 19bd
00000120: d5d8 083e 9d15 63bd 19e4 ab3c 3a41 bebd
00000130: 87b0 58bd a190 6fbc b4fd 6d3d 3fa9 c83d
00000140: 7b82 87bd 2237 a4be be7b 9ebe f2ce 94bd
00000150: 2299 63be 358e d0be b891 93be f53f 0bbe
00000160: 2cbc 69be 787a 80be 935f c1be aa05 9ebe
00000170: 4846 7dbb 51dd 57be 100b 37be d9e8 afbd
00000180: 10e9 46be 10b4 d6bd 0c1b 65bd 2bbf 543e
00000190: e6fa 16be 4f8b 89be 7a8c 74bd 3f77 89bd
000001a0: 405e 86be e3c4 dfbd 6b0f 4fbe adc3 0abe
000001b0: d273 d7bd c982 23be 829b 0a3d dbdd f0bc
000001c0: a157 29be 5408 a4bd a313 753c 6650 47be
000001d0: b498 e63d 4589 003e cf54 683b db86 38bd
000001e0: ea40 a73b 28e0 3ebd 52eb ad3d 7000 58bd
000001f0: a192 403d 9368 c43d 32c4 103e 15e3 c8bd
00000200: a936 a8bc 3d30 30bd 3c74 cebd 52a9 d6bd
00000210: 45ee fc3a eda6 b2bd 9f4e ebbd a8cc a23d
00000220: c24b 183d dcc5 5fbc fb84 a63c 2cf5 99bd
00000230: c06a debc 20c6 2abc 99ef e83c ff6c b7bd
00000240: 9818 833c 4714 f6bd ce85 ae3d 79fc f23c
00000250: 95ab f93b 6e3b 563d b4df 2abd 31d9 abbd
00000260: daa4 09bd 8d0d 03be a207 e53c 1179 b3bd
00000270: ebfe 22bd 5c0c b63d 99fc 9d3c 9bc7 763d
00000280: 00e3 033c adcb 08bd e64e 463d 62fb 48bd
00000290: 9c8c f43d 233c 78bd e718 92bd 5d4b 96bd
000002a0: 4bf4 9ebd 11ba c3bd 30a7 47bd 592c 9ebd
000002b0: 730b 12be 6451 863c c415 763d 7185 d9bb
000002c0: daee 3d3e 5fd1 3f3e dab0 f03d 7dbb 053e
000002d0: c972 183e 35eb 823d 9279 033e 579b 8c3e
000002e0: f311 4f3e 5360 663e f62b 093e cdf5 c63d
000002f0: 129f 803e 95e5 393e 6497 283e 8a9b 473e
00000300: 899d 3a3d 1983 f93d 3280 4c3e 4d01 093e
00000310: 1036 b23d 3ee0 7a3e 08db cb3e 1a78 013e
00000320: 84c2 6d3e 8757 b83e 8966 593e 517a 983e
00000330: 1bb3 823e 107a 953e bcb7 183e 8ac1 143e
00000340: 58f8 893c 6b3f 993d b67b 6d3e 844a 4a3d
00000350: a2c8 5cbd 721c d2bd 11be 3dbe 8b55 12be
00000360: a54c a2bd 4763 a8bd 7043 93bc 1068 3a3d
00000370: cd56 873c 4e20 57bd a58b 223e 119d 773c
00000380: 461f b0be c276 8ebe 3a4a dbbd bc14 d3be
00000390: 050f febd ac9d 353e 31f6 ad3d dc27 1cbe
000003a0: f4fa 003e d587 a93e d31a dd3e a515 403e
000003b0: 3b08 26be 459b 6f3e 6e22 403e 105e b5bc
000003c0: 5237 7f3d 749d 2d3d 5dfe f73d 1b44 6fbb
000003d0: 3b8c 2dbd 439c e33d a913 e43d b264 353e
000003e0: 9d3e 1d3e 7aad 52bd ee26 5b3d d671 8bbc
000003f0: 4ca7 41bd ed6f 56be c2e5 47be d640 cfbd

3.bias f4 [4]
0.012139249 -0.01940528 -0.070693456 -0.11989753
00000000: b3e3 463c d2f7 9ebc bbc7 90bd d68c f5bd

4.weight f4 [4]
1.3055162 1.3867124 1.1820933 1.4543198
00000000: 281b a73f cb7f b13f d54e 973f 2727 ba3f

4.bias f4 [4]
0.23610929 0.0570389 -0.294947 0.15586507
00000000: a2c6 713e 9fa1 693d 4b03 97be 189b 1f3e

4.running_mean f4 [4]
0.6162918 -1.1160678 0.15782565 0.33050328
00000000: 4dc5 1d3f 4fdb 8ebf 0c9d 213e ba37 a93e

4.running_var f4 [4]
0.2628506 0.40011084 0.34345803 0.34540233
00000000: 5b94 863e 54db cc3e bbd9 af3e 93d8 b03e

7.odefunc.fc1.weight f4 [16, 900]
0.0021478091 0.074811034 0.041447327 0.008637908 0.018739574 0.009429145 -0.016239263 0.025215883
0.0015526273 0.009918618 0.00028460965 0.023723776 0.04853985 0.05072193 -0.021479871 -0.04924884
0.00040706928 0.0049694926 0.0038282394 0.015155578 -0.030353291 -0.0028388079 -0.028078623 0.007419303
-0.038941022 -0.004644813 -0.059347846 -0.033994637 -0.041514084 -0.029880526 -0.032288928 0.03467378
-0.010316249 0.003395239 -0.0022781398 0.00755851 0.012693586 -0.046666343 -0.018300915 -0.03962112
0.013924486 -0.03799098 -0.055252865 -0.035262052 -0.036999 0.006378393 -0.011492096 0.029653376
-0.015088396 -0.001246126 0.01393846 0.002400645 -0.03652219 -0.023645705 0.023383632 0.008797434
-0.016757516 0.009418329 -0.024489416 -0.043393996 -0.036203027 -0.011452186 -0.020817576 -0.013276294
0.022930987 -0.01353842 -0.0056652217 -0.03979606 0.012927787 -0.013521051 0.000174967 0.0023794537
-0.011224045 -0.0072155017 0.002585263 0.017833848 0.011116167 -0.008539167 -0.0029320642 0.026531676
-0.007857955 -0.02804693 -0.019263117 0.013409527 -0.011789471 -0.000101257196 0.00928059 0.004632844
-0.007404989 -0.0127230715 0.006552473 -0.0270854 0.026321784 0.020948399 -0.00068857346 -0.0018677199
0.041023556 0.0172463 0.019687638 0.01046265 -0.030994892 0.018756777 -0.040339224 0.0047280835
-0.006424371 0.023670416 0.018750617 -0.01393017 -0.001621499 0.014022255 -0.01679346 0.006896858
0.025806636 0.03073157 0.047551036 -0.0020247474 0.007953787 -0.0070754373 0.00672287 0.012219668
0.05646594 0.011566347 -0.031567443 -0.024598405 0.03081268 0.06072403 0.043118667 0.01000603
0.024131194 0.0030684487 0.0014537469 -0.025957895 -0.0316999 -0.033836808 0.0049807886 0.041574553
-0.0045826253 -0.032512493 -0.046491005 0.036338773 0.005279025 0.024480842 0.051499862 0.009108557
0.0043328977 -0.013632155 -0.036460347 -0.04435698 -0.002781105 0.012331535 0.018641498 0.026699899
-0.004457106 0.0022453342 0.0013577674 -0.029175766 -0.022306262 -0.010297339 0.049660664 -0.011865085
0.022486044 0.014371666 -0.029317917 0.01742852 -0.009950111 -0.026624234 0.0066378447 0.014753591
-0.033825416 -0.040129766 -0.033472702 0.009274753 -0.012878265 -0.0024800275 -0.016837541 0.024045054
-0.034367852 -0.027602907 -0.010866089 0.048935108 0.016924525 0.022098595 0.036211047 0.022081355
0.022429507 -0.03304929 -0.022922447 0.0054912157 0.026551919 0.025958687 0.01459103 -0.011014069
-0.0047958833 0.032319553 0.0022494858 0.01076598 -0.014892055 -0.025039475 -0.022688905 -0.004371906
-0.024582364 0.0201306 0.030820135 -0.027045988 -0.016199734 0.020273125 -0.017371004 0.014924789
0.024054322 0.02905917 0.05301839 0.049495403 0.0069944873 0.010493488 0.0004927518 -0.014160967
0.035953257 -0.003213969 0.02231136 0.031860348 -0.00478444 -0.014461125 0.045659997 0.044059828
0.029598666 0.04905874 0.0944312 0.056523055 0.033677984 0.011178985 0.02785189 0.06563064
0.03312086 0.07248168 0.033577148 0.017299976 0.033354413 0.030982679 0.06398054 0.044691842
0.01687806 0.04777987 0.028297648 0.04120264 0.008887756 0.02555097 -0.021862807 0.036044348
0.013326621 0.0053185425 -0.034261525 0.009222423 0.019900393 0.040237516 0.053461477 0.036645073
00000000: 42c2 0c3b 8736 993d acc4 293d 0386 0d3c
00000010: bc83 993c b37c 1a3c 3408 85bc 8a91 ce3c
00000020: 8781 cb3a b381 223c a937 9539 5d58 c23c
00000030: b9d1 463d ccc1 4f3d 8ef6 afbc 27b9 49bd
00000040: ea6b d539 20d7 a23b 33e3 7a3b 1a4f 783c
00000050: 77a7 f8bc 4b0b 3abb 2405 e6bc a01d f33b
00000060: 9f80 1fbd 8433 98bb ba16 73bd f63d 0bbd
00000070: ac0a 2abd 01c8 f4bc 6541 04bd 1806 0e3d
00000080: 7c05 29bc a882 5e3b d84c 15bb 61ad f73b
00000090: c2f8 4f3c 3525 3fbd cdeb 95bc c149 22bd
000000a0: 8723 643c 6e9c 1bbd d450 62bd f16e 10bd
000000b0: 438c 17bd d701 d13b 5849 3cbc a3eb f23c
000000c0: 5235 77bc 0d55 a3ba 235e 643c 2454 1d3b
000000d0: 4b98 15bd a3b4 c1bc 088f bf3c 1d23 103c
000000e0: 0f47 89bc 564f 1a3c 079e c8bc e7bd 31bd
000000f0: a049 14bd f3a1 3bbc 9f89 aabc d084 59bc
00000100: c4d9 bb3c 40d0 5dbc 53a3 b9bb 3201 23bd
00000110: 12cf 533c 6687 5dbc 5977 3739 9cf0 1b3b
00000120: 0fe5 37bc 0470 ecbb 846d 293b 4a18 923c
00000130: 9520 363c dde7 0bbc e027 40bb f558 d93c
00000140: a7be 00bc adc2 e5bc afcd 9dbc a2b3 5b3c
00000150: a028 41bc 0b5a d4b8 9e0d 183c 1dcf 973b
00000160: 8da5 f2bb 6e74 50bc 21b6 d63b 33e2 ddbc
00000170: c8a0 d73c fa9b ab3c 6281 34ba 48ce f4ba
00000180: 5108 283d 1d48 8d3c f847 a13c 896b 2b3c
00000190: 00e9 fdbc d0a7 993c be3a 25bd 0aee 9a3b
000001a0: 8883 d2bb 76e8 c13c e59a 993c 5e3b 64bc
000001b0: 7a88 d4ba 9abd 653c 7092 89bc 0aff e13b
000001c0: 7068 d33c c6c0 fb3c e0c4 423d a0b1 04bb
000001d0: 9a50 023c 12d9 e7bb 854b dc3b 0135 483c
000001e0: d448 673d c780 3d3c dd4c 01bd 9882 c9bc
000001f0: e06a fc3c c3b9 783d 339d 303d 55f0 233c
00000200: c8ae c53c 0718 493b a78b be3a a7a5 d4bc
00000210: c1d7 01bd 7798 0abd e235 a33b 144a 2a3d
00000220: d929 96bb d22b 05bd 5a6d 3ebd f7d7 143d
00000230: acfb ac3b 0c8c c83c 85f1 523d 0f3c 153c
00000240: fbfa 8d3b 6759 5fbc 7257 15bd aaaf 35bd
00000250: 3343 36bb 350a 4a3c 0eb6 983c bfb9 da3c
00000260: ea0c 92bb 7526 133b 1df7 b13a 0402 efbc
00000270: 9fbb b6bc 2cb6 28bc fb68 4b3d c665 42bc
00000280: a734 b83c 2377 6b3c 212c f0bc 41c6 8e3c
00000290: ca05 23bc 111b dabc 4782 d93b 0cb9 713c
000002a0: 858c 0abd 1c5f 24bd ac1a 09bd 22f5 173c
000002b0: 5cff 52bc f587 22bb e2ee 89bc 22fa c43c
000002c0: 4ec5 0cbd 7e1f e2bc ae07 32bc 2e70 483d
000002d0: 4da5 8a3c 1d08 b53c 0952 143d f5e3 b43c
000002e0: 16be b73c b15e 07bd dbc7 bbbc a8ef b33b
000002f0: 6983 d93c 50a7 d43c 370f 6f3c 5b74 34bc
00000300: c926 9dbb 8261 043d 1c6c 133b cb63 303c
00000310: cefd 73bc 961f cdbc 15de b9bc 3542 8fbb
00000320: f460 c9bc eee8 a43c 827a fc3c 8c8f ddbc
00000330: 4eb5 84bc d313 a63c a34d 8ebc 1a87 743c
00000340: 920d c53c 7f0d ee3c d029 593d b1bb 4a3d
00000350: 0332 e53b e1ec 2b3c 032c 013a 6703 68bc
00000360: b943 133d 74a1 52bb 50c6 b63c ff7f 023d
00000370: cbc6 9cbb 5bee 6cbc fa05 3b3d 1478 343d
00000380: e778 f23c d1f1 483d 2565 c13d b884 673d
00000390: edf1 093d 1028 373c a629 e43c 5b69 863d
000003a0: bda9 073d 4671 943d 3188 093d aeb8 8d3c
000003b0: a39e 083d 63cf fd3c 3b08 833d cb0e 373d
000003c0: db43 8a3c d3b4 433d 78d0 e73c 19c4 283d
000003d0: f39d 113c 4550 d13c a119 b3bc 3da3 133d
000003e0: e657 5a3c 2b47 ae3b d055 0cbd a519 173c
000003f0: 2606 a33c 18d0 243d 6cfa 5a3d 2519 163d

7.odefunc.fc1.bias f4 [16]
0.050356917 -0.35162202 0.09130736 0.080625534 0.051947925 -0.042985205 -0.09521101 -0.16132207
-0.0433791 0.15549691 -0.013779956 0.10320913 -0.12557606 0.10330447 -0.17090479 -0.07972973
00000000: 0e43 4e3d cd07 b4be 5aff ba3d 001f a53d
00000010: 59c7 543d 4111 30bd fdfd c2bd 9d31 25be
00000020: 48ae 31bd 953a 1f3e 53c5 61bc 4f5f d33d
00000030: 0397 00be 4b91 d33d aa01 2fbe 5749 a3bd

7.odefunc.fc2.weight f4 [900, 16]
0.20416355 -0.030561741 0.25256813 -0.21987933 0.14194995 0.015963065 -0.044731196 0.095651664
-0.1004313 -0.24457622 -0.092479385 0.0025418326 0.02885039 0.20436803 0.11582625 -0.011932615
-0.23336528 -0.16887404 0.23050222 0.0068340534 0.20785615 0.1874682 0.21743315 -0.08250541
-0.124249585 0.1988187 -0.123092905 -0.19571227 -0.12928598 -0.079607815 -0.24780446 -0.18446387
0.2436946 -0.11070382 -0.03130572 -0.02882215 -0.0030401468 -0.20754799 0.13078292 -0.19236028
-0.023208193 0.004342062 0.17901511 0.053993054 0.100896224 -0.06686455 0.07944928 0.2219122
0.048481673 -0.1288646 -0.1027517 -0.07323181 -0.07234447 0.20840819 0.20795445 0.082958326
-0.15593006 0.018591262 -0.16102678 0.031383004 -0.17386945 0.14328186 -0.03698723 0.23114842
-0.21185906 0.10968038 -0.001871324 -0.182769 0.23244144 0.23593928 -0.10125686 0.07431402
-0.1762378 -0.064078785 0.12298195 0.011752729 -0.13783461 -0.13353519 0.046933834 0.13463776
0.18160212 0.1856375 0.13841936 0.24113373 -0.13635264 -0.21673222 0.117565095 -0.21900545
0.19644113 -0.067349076 -0.018748313 -0.18507841 -0.13648129 -0.009262911 -0.14260666 0.16568436
0.16844803 -0.16929543 0.07640893 -0.022786193 0.004016941 0.13129064 -0.14780532 0.23675297
-0.12557323 -0.16396435 0.049226087 0.12160399 0.098394416 -0.21257563 0.16236019 0.04217623
0.19027914 0.01865378 0.13589373 -0.23563555 0.0786587 0.046986863 0.21369316 -0.21331921
0.026201699 0.111493476 0.015319943 -0.1827323 0.19463813 -0.09598729 0.17214915 0.24521752
-0.20289366 0.24316956 -0.2436862 -0.05659554 -0.08366362 -0.21442395 0.098470055 -0.10366943
-0.112758584 -0.09849451 -0.0988403 0.17612001 0.09798951 0.17436141 0.23620819 -0.05785187
0.018393418 0.041192494 -0.20557691 0.22952837 -0.012792635 0.21457708 0.088200234 0.155093
0.17890091 0.16599394 -0.015770277 -0.049649596 0.17539737 0.12962323 -0.1112389 -0.08367264
0.24243605 -0.08054461 0.23405983 0.1015504 -0.12924913 -0.06653525 -0.18038648 0.088033766
-0.10745099 0.08162358 -0.062611304 0.1323657 -0.041216444 -0.24314351 -0.15338324 0.22746874
0.17141503 0.20361309 -0.19915208 0.11259832 0.24409398 0.05622491 0.018192599 -0.09080505
-0.0025777048 -0.011308687 0.14805347 0.24271366 -0.089596346 -0.12691261 0.16810025 -0.1302166
-0.18046756 -0.07558898 -0.1635028 0.13672498 -0.19537416 -0.039794005 0.010804144 -0.20744234
0.105394736 -0.0062435404 0.0007136734 0.09753985 0.10841544 -0.074253775 -0.23838982 0.0016207246
-0.12683272 -0.22981042 -0.113027416 0.08648731 0.014033739 0.16618598 0.15290904 0.18300433
-0.10577216 0.10088632 0.14347813 0.2173098 -0.03226777 0.2105644 0.18967114 0.24285239
0.21877305 0.13768724 -0.1742311 0.2177411 0.14401838 -0.10694595 0.11946952 0.13259639
-0.1735522 -0.016580552 0.20174357 -0.021597838 0.23046261 0.014678917 0.105551384 -0.051760476
0.13723993 -0.19516906 0.08347997 -0.043412346 0.11220132 0.14318416 0.07229495 -0.04318952
0.22607954 0.0809204 -0.017843302 0.24358025 0.09987761 0.116053216 -0.21594596 -0.066008545
00000000: 4010 513e 9e5c fabc 9c50 813e 0c28 61be
00000010: 545b 113e f9c4 823c 0f38 37bd 05e5 c33d
00000020: edae cdbd 3072 7abe d565 bdbd e094 263b
00000030: a757 ec3c da45 513e 5036 ed3d 0481 43bc
00000040: 4ff7 6ebe 51ed 2cbe c608 6c3e 32f0 df3b
00000050: 3ed8 543e aaf7 3f3e cca6 5e3e 99f8 a8bd
00000060: 9176 febd 2197 4b3e 2218 fcbd cc68 48be
00000070: 8b63 04be 6c09 a3bd 74c0 7dbe 19e4 3cbe
00000080: 148b 793e afb8 e2bd 6d3a 00bd 6e1c ecbc
00000090: 333d 47bb 7687 54be f5eb 053e 18fa 44be
000000a0: 1c1f bebc db47 8e3b bd4f 373e d227 5d3d
000000b0: aea2 ce3d 48f0 88bd 4eb6 a23d f43c 633e
000000c0: b894 463d 15f5 03be 7c6f d2bd 8ffa 95bd
000000d0: 5629 94bd f568 553e 03f2 543e 0ee6 a93d
000000e0: 21ac 1fbe b44c 983c 34e4 24be 778b 003d
000000f0: d50a 32be 7bb8 123e ec7f 17bd 2cb2 6c3e
00000100: 95f1 58be 1ba0 e03d 3747 f5ba cc27 3bbe
00000110: 2105 6e3e 119a 713e c25f cfbd f331 983d
00000120: af77 34be bd3b 83bd f6dd fb3d 858e 403c
00000130: 8424 0dbe 73bd 08be b13d 403d 7bde 093e
00000140: e8f5 393e c217 3e3e cebd 0d3e c3eb 763e
00000150: 07a0 0bbe 0def 5dbe f8c5 f03d f742 60be
00000160: dd27 493e 50ee 89bd 1096 99bc 3285 3dbe
00000170: c0c1 0bbe 77c3 17bc 7b07 12be 29a9 293e
00000180: a47d 2c3e c85b 2dbe 497c 9c3d 1caa babc
00000190: 8ba0 833b 0e71 063e 475a 17be 5f6f 723e
000001a0: 4596 00be 45e6 27be 4ba1 493d 830b f93d
000001b0: 0383 c93d 6dad 59be c041 263e fcc0 2c3d
000001c0: 89d8 423e d0cf 983c ba27 0b3e 724a 71be
000001d0: d017 a13d 4c75 403d 61d2 5a3e 5a70 5abe
000001e0: f2a4 d63c b156 e43d 8000 7b3c 2d1e 3bbe
000001f0: 384f 473e fc94 c4bd de47 303e 4d1a 7b3e
00000200: 5bc3 4fbe 7101 793e e088 79be bad0 67bd
00000210: d557 abbd f491 5bbe abaa c93d a350 d4bd
00000220: f9ed e6bd 7db7 c9bd c96c cabd ce58 343e
00000230: b9ae c83d cc8b 323e 8fe0 713e 15f6 6cbd
00000240: cbad 963c 76b9 283d c182 52be 7c09 6b3e
00000250: 3398 51bc 18ba 5b3e 53a2 b43d b3d0 1e3e
00000260: cd31 373e 51fa 293e ab30 81bc 605d 4bbd
00000270: 5e9b 333e f4bb 043e 38d1 e3bd 905c abbd
00000280: 2841 783e 93f4 a4bd 61ad 6f3e a8f9 cf3d
00000290: e259 04be a243 88bd 3cb7 38be 0c4b b43d
000002a0: 440f dcbd 432a a73d 5b3a 80bd e08a 073e
000002b0: 93d2 28bd 9dfa 78be 7f10 1dbe 91ed 683e
000002c0: 6c87 2f3e f37f 503e 86ee 4bbe f399 e63d
000002d0: c6f3 793e 174c 663d a508 953c 00f8 b9bd
000002e0: b6ee 28bb 1248 39bc 549b 173e ee89 783e
000002f0: 4a7e b7bd 61f5 01be 7922 2c3e 8057 05be
00000300: 7dcc 38be 65ce 9abd 476d 27be a201 0c3e
00000310: 2a10 48be 0aff 22bd dd03 313c c46b 54be
00000320: 32d9 d73d 9d96 ccbb d015 3b3a f9c2 c73d
00000330: ea08 de3d 5d12 98bd 761c 74be 7e6e d43a
00000340: 70e0 01be 6c53 6bbe eb7a e7bd 4220 b13d
00000350: c5ed 653c a82c 2a3e 3094 1c3e 7d65 3b3e
00000360: 139f d8bd 7d9d ce3d eeeb 123e 7686 5e3e
00000370: 362b 04bd 329e 573e 2739 423e 4cae 783e
00000380: 0b06 603e e2fd 0c3e a369 32be 86f7 5e3e
00000390: 8e79 133e 7a06 dbbd 70ac f43d 59c7 073e
000003a0: abb7 31be f0d3 87bc de95 4e3e f3ed b0bc
000003b0: 64fe 6b3e d77f 703c 532b d83d cb02 54bd
000003c0: a088 0c3e 66da 47be 8cf7 aa3d 25d1 31bd
000003d0: cec9 e53d de9e 123e 600f 943d 7ee7 30bd
000003e0: 6581 673e 98b9 a53d 1e2c 92bc 1a6d 793e
000003f0: a28c cc3d 4fad ed3d f020 5dbe 7d2f 87bd

7.odefunc.fc2.bias f4 [900]
0.09362087 -0.10827945 -0.1632823 0.040725604 -0.11240769 0.08898213 -0.14526634 0.19137077
0.17483209 -0.13329439 0.046669565 0.10589093 0.22301884 -0.11214561 -0.13906033 -0.094373204
-0.14522801 0.06789364 0.21274918 -0.03946563 -0.05731426 -0.15754822 -0.0069042407 -0.08236363
0.11919772 -0.22014052 -0.01183055 0.17319229 -0.091342546 -0.025066406 -0.09742053 0.16343828
-0.09769184 0.11808742 0.028834175 0.09786935 0.08218644 0.118761815 -0.2651155 -0.0039072493
0.10495138 -0.02293323 0.026162853 0.08373549 -0.19897464 -0.10095255 0.15606065 -0.19733529
0.13903454 -0.24595602 -0.11105214 -0.10915947 0.18931489 -0.24956307 0.01962238 -0.14267321
-0.10299484 0.18324097 -0.17067337 -0.21479054 -0.014545282 -0.095331624 -0.120000035 0.10256447
-0.07203162 -0.07713587 -0.025296036 -0.055376895 0.04629325 -0.2064025 -0.084386125 -0.106929764
-0.041022956 -0.0047359196 -0.025513297 -0.09272725 -0.21372196 0.017215371 -0.2165995 0.108792014
-0.100842506 0.032302026 0.07630771 0.15317443 -0.027528003 0.19949195 -0.17273355 0.09510323
-0.20487162 -0.044170383 -0.20483209 -0.22194491 -0.0068861116 0.09261468 -0.1748533 0.081605315
-0.19187991 -0.16682193 -0.09423904 0.1300477 -0.041551422 -0.08666577 0.07252469 -0.0024662295
-0.23518936 0.097663715 -0.076244056 -0.12346203 0.082473956 0.008692666 -0.21650892 -0.25700057
0.16476808 -0.040200368 -0.16308591 0.030209305 -0.12992816 0.094242506 -0.23612593 -0.04279618
0.16441694 -0.04098293 -0.19617498 -0.2000589 -0.020054463 0.020086782 -0.15647905 -0.21001156
0.20856868 -0.010765107 0.17608117 -0.15912117 -0.11203936 0.07477131 -0.20829974 0.14831771
0.080538586 -0.04474325 -0.07753993 0.090484075 -0.16736732 -0.022568718 0.14769047 -0.1678613
-0.10284153 0.21509404 0.0048616403 0.09722979 -0.048019078 -0.13066193 -0.0014116572 0.04360058
-0.08397336 -0.19247556 -0.0268677 0.042964946 0.073576584 -0.19031723 0.20452558 0.06775164
0.037677765 0.11604058 -0.15451343 0.008210687 0.05430819 -0.07852468 -0.014626398 -0.020304896
-0.12045756 0.015905246 -0.1734328 -0.24562621 -0.008613524 -0.11234428 -0.09290813 -0.2600019
-0.013948344 -0.07012471 0.037946843 0.14169814 -0.053173117 -0.09721206 -0.20346396 -0.09303777
-0.23866898 -0.0007053202 -0.09906879 -0.034874164 -0.13197973 -0.103420086 0.098382376 -0.12391225
0.057832614 0.23072529 -0.14405373 -0.21729289 0.1543097 0.087468624 0.026324945 -0.18935828
-0.2614982 0.0019067127 -0.26093462 -0.26057267 -0.1635842 0.060347017 -0.19849953 -0.14153011
0.13774697 -0.09379726 -0.17311971 0.15444621 -0.14455526 -0.12948407 0.1857829 -0.13112938
-0.1773659 -0.17510453 0.027987786 -0.17833169 -0.25457257 0.022572214 -0.22846779 0.16248897
0.19585648 0.065122254 -0.28870308 -0.050658505 -0.168462 -0.06399677 0.07550724 0.09095813
0.07616975 0.14479584 -0.2818764 -0.20582162 0.07250481 -0.19569756 -0.26964653 0.111294664
-0.22199592 -0.07153682 0.12163118 0.1410075 0.07382718 -0.041769434 -0.040583946 -0.24739338
-0.07579537 -0.017065892 -0.10618343 -0.016012026 -0.15597555 0.11247468 -0.12667768 -0.15295154
00000000: 4cbc bf3d 9ec1 ddbd 7a33 27be e4cf 263d
00000010: 0136 e6bd 433c b63d b3c0 14be b3f6 433e
00000020: 2f07 333e 537e 08be 9628 3f3d 58dd d83d
00000030: 0d5f 643e 99ac e5bd d565 0ebe bd46 c1bd
00000040: a7b6 14be d20b 8b3d ecda 593e b6a6 21bd
00000050: 5cc2 6abd 5254 21be f83c e2bb 43ae a8bd
00000060: ef1d f43d 846c 61be ecd4 41bc 5259 313e
00000070: cd11 bbbd 1058 cdbc 6a84 c7bd 5d5c 273e
00000080: a912 c8bd d1d7 f13d a635 ec3c ba6f c83d
00000090: 5d51 a83d 6539 f33d 38bd 87be 6208 80bb
000000a0: c0f0 d63d 78de bbbc 7b53 d63c 837d ab3d
000000b0: 02c0 4bbe 36c0 cebd 5dce 1f3e 4312 4abe
000000c0: 125f 0e3e e5db 7bbe 4e6f e3bd 008f dfbd
000000d0: c3db 413e 768d 7fbe 1dbf a03c ed18 12be
000000e0: f5ee d2bd 85a3 3b3e 00c5 2ebe 0df2 5bbe
000000f0: 564f 6ebc 3a3d c3bd 94c2 f5bd 520d d23d
00000100: 5085 93bd 69f9 9dbd a239 cfbc e2d2 62bd
00000110: fe9d 3d3d 2d5b 53be a2d2 acbd fefd dabd
00000120: b007 28bd c62f 9bbb 4301 d1bc c9e7 bdbd
00000130: eed9 5abe 4007 8d3c 42cc 5dbe 59ce de3d
00000140: 8486 cebd 214f 043d 3747 9c3d c2d9 1c3e
00000150: 6882 e1bc 9e47 4c3e 10e1 30be 7bc5 c23d
00000160: dec9 51be 01ec 34bd 81bf 51be 8745 63be
00000170: e4a4 e1bb c4ac bd3d be0c 33be b020 a73d
00000180: 2b7c 44be 5ed3 2abe 6600 c1bd 392b 053e
00000190: d331 2abd d37d b1bd d387 943d 77a0 21bb
000001a0: 7bd5 70be ea03 c83d d825 9cbd a9d9 fcbd
000001b0: 1be8 a83d af6b 0e3c 84b4 5dbe 9495 83be
000001c0: f7b8 283e 24a9 24bd feff 26be 8179 f73c
000001d0: e30b 05be 3702 c13d ffca 71be 0c4b 2fbd
000001e0: ea5c 283e b8dd 27bd 18e2 48be 3edc 4cbe
000001f0: 4249 a4bc 098d a43c 0b3c 20be 450d 57be
00000200: 0793 553e 2260 30bc 9f4e 343e a9f0 22be
00000210: e474 e5bd b321 993d 874c 55be 99e0 173e
00000220: 6af1 a43d b344 37bd 41cd 9ebd b74f b93d
00000230: 5762 2bbe 08e2 b8bc 2c3c 173e d5e3 2bbe
00000240: 959e d2bd 9d41 5c3e 654e 9f3b 6a20 c73d
00000250: a7af 44bd 3ecc 05be 5b07 b9ba 8696 323d
00000260: 3afa abbd 5018 45be a719 dcbc 03fc 2f3d
00000270: 52af 963d 85e2 42be 276f 513e 5fc1 8a3d
00000280: 0054 1a3d afa6 ed3d c538 1ebe 1e86 063c
00000290: 4472 5e3d 8cd1 a0bd 8fa3 6fbc 7456 a6bc
000002a0: 74b2 f6bd b84b 823c 5e98 31be 7085 7bbe
000002b0: bd1f 0dbc c214 e6bd 9e46 bebd f81e 85be
000002c0: 9887 64bc 8b9d 8fbd 266e 1b3d 5119 113e
000002d0: 0ecc 59bd 1e17 c7bd db58 50be 968a bebd
000002e0: a465 74be 3de5 38ba 94e4 cabd 36d8 0ebd
000002f0: b225 07be e9cd d3bd b37c c93d b5c5 fdbd
00000300: e4e1 6c3d 4043 6c3e d282 13be 0782 5ebe
00000310: 5d03 1e3e c022 b33d 69a7 d73c 23e7 41be
00000320: 18e3 85be a9ea f93a 3999 85be c869 85be
00000330: 9e82 27be 6f2e 773d 7643 4bbe 45ed 10be
00000340: 8b0d 0d3e c718 c0bd 4b46 31be 2627 1e3e
00000350: 4b06 14be 7997 04be df3d 3e3e c846 06be
00000360: 689f 35be 9a4e 33be a446 e53c 959c 36be
00000370: 5657 82be 5de9 b83c 76f3 69be 8263 263e
00000380: 9a8e 483e d15e 853d e4d0 93be 4b7f 4fbd
00000390: 4d81 2cbe bd10 83bd 8aa3 9a3d 4248 ba3d
000003a0: e3fe 9b3d 5c45 143e 1a52 90be e7c2 52be
000003b0: 677d 943d f164 48be 1c0f 8abe 75ee e33d
000003c0: e652 63be e581 92bd c519 f93d 4564 103e
000003d0: b432 973d 6d16 2bbd 5a3b 26bd b154 7dbe
000003e0: 9a3a 9bbd c5cd 8bbc b376 d9bd a72b 83bc
000003f0: 0eb8 1fbe 2059 e63d cbb7 01be 549f 1cbe

8.weight f4 [10, 900]
0.05147646 0.056580704 0.03912434 0.048298117 0.03684171 0.019431885 0.042241316 0.03387844
0.07389402 0.04318847 0.035801712 0.038746044 0.0353446 0.01457714 0.0191908 -0.015940767
0.020702124 0.036417298 0.001691979 0.05498573 0.06469139 -0.023801435 0.05366889 0.008623338
0.018925985 8.67806e-05 0.022524402 0.0145757105 0.058992695 0.043554243 -0.0077904565 0.036005758
-0.0013664583 0.06809088 0.02452352 0.028979894 0.0030755976 0.038737606 0.04295624 0.048845798
-0.001172131 0.044243596 0.013828521 -0.00029528423 0.05522992 -0.0031560136 0.04314802 0.062221367
-0.037851527 0.0312336 0.08658556 0.04693068 0.045917384 0.05218245 0.055284176 0.028897688
-0.008419876 0.00875212 0.04713924 0.009451791 -0.019828307 0.015732542 0.016654285 -0.026874196
0.016022103 0.042668995 0.0691838 0.059884377 0.03526625 0.093922466 0.040490992 0.037768934
0.005761579 0.027851509 0.00078473653 0.020664994 0.02634904 0.053282734 0.014545618 0.05467219
0.04693915 0.05981795 0.0579769 0.057058766 0.02277457 -0.014528902 -0.015180277 0.010815296
-0.018198043 -0.01822907 0.015377788 0.026947081 0.0036228183 -0.014902506 0.01946873 0.049412556
0.088822 0.095893964 0.008186672 0.03876485 0.020735472 -0.024901502 -0.058795333 -0.0051278546
0.07251246 0.024485843 0.018997252 0.041209094 0.01334842 0.0029495256 0.07598833 0.05108134
0.03355647 0.05461526 0.03198905 -0.015037874 0.06848819 -0.013674361 0.012279911 0.0057127485
-0.015451065 0.06583418 0.0263645 0.028521815 0.0033320778 0.033744756 0.027864998 0.0352799
-0.018888561 0.0011831104 0.0051492183 0.014922778 0.0036737463 0.015162829 0.017659027 -0.016769735
0.0050933845 -0.004022593 0.030920396 -0.003487987 0.03846505 0.028001353 -0.030461965 0.020517537
0.0148288915 0.023449436 -0.0011156654 0.041444454 0.030694775 0.051302724 -0.037333723 -0.016753219
0.017922103 0.049379136 -0.0014221652 -0.03623979 -0.010986833 -0.006239386 -0.024705457 0.021885123
-0.025861891 -0.00050813187 0.015863769 0.06919277 0.021748224 -0.03927736 0.003348242 0.023755312
0.0002883119 -0.032663073 -0.003438128 0.0017128907 -0.032461274 -0.0009414839 0.013681502 0.056531608
-0.039102286 0.010546202 -0.016871225 -0.003949387 -0.060346033 -0.003110058 -0.0029991833 0.0039351466
-0.008686267 -0.040353343 0.0144688375 0.020865744 -0.01778927 0.02319459 -0.030745106 0.04629323
-0.043023743 -0.03162004 0.008450078 -0.031080857 -0.04353797 -0.018567234 -0.008714965 0.058808256
0.036849156 0.00011969134 0.024673017 0.046106752 0.043748334 0.02064084 0.0339573 0.054196697
-0.012127629 -0.012307702 -0.0221497 -0.038321774 0.003915643 0.029391129 0.015527474 0.03050966
0.004357186 0.041141618 -0.0091573605 0.04267012 0.03410693 0.00167118 0.015359826 -0.060846772
-0.04522721 0.037165802 0.048264116 0.03744893 0.06954209 -0.018756134 0.0007155603 -0.0059951935
0.0072575686 0.016938277 0.08608108 0.038417716 0.023416787 0.061643664 0.032034148 0.041105796
0.060598206 -0.007755987 0.0030339921 0.036970604 0.007323754 0.021499213 0.0068748943 0.06847688
0.0727595 0.027116336 0.045042787 0.007566483 0.036275275 -0.040728536 0.027749335 0.054563537
00000000: fbd8 523d 2bc1 673d d840 203d 3fd4 453d
00000010: 55e7 163d 9e2f 9f3c 3b05 2d3d 1ec4 0a3d
00000020: bf55 973d 65e6 303d d1a4 123d 2cb4 1e3d
00000030: 80c5 103d f5d4 6e3c 0636 9d3c 3696 82bc
00000040: 8097 a93c 4e2a 153d 65c5 dd3a b838 613d
00000050: eb7c 843d 3afb c2bc e9d3 5b3d e748 0d3c
00000060: ab0a 9b3c fbfd b538 1885 b83c f6ce 6e3c
00000070: 53a2 713d ef65 323d 1647 ffbb c67a 133d
00000080: bb1a b3ba 3b73 8b3d 8de5 c83c 3e67 ed3c
00000090: f78f 493b 53ab 1e3d e2f2 2f3d 8812 483d
000000a0: 31a2 99ba c638 353d 0591 623c 61d0 9ab9
000000b0: c538 623d 1fd5 4ebb fabb 303d d5db 7e3d
000000c0: 340a 1bbd 9bdd ff3c c553 b13d 623a 403d
000000d0: de13 3c3d 44bd 553d a971 623d d8ba ec3c
000000e0: 85f3 09bc 0d65 0f3c 1315 413d afdb 1a3c
000000f0: f96e a2bc 88e1 803c 916e 883c 4627 dcbc
00000100: c940 833c afc5 2e3d 3cb0 8d3d 5249 753d
00000110: 5873 103d 6c5a c03d e2d9 253d 99b3 1a3d
00000120: a1cb bc3b d928 e43c c7b6 4d3a a249 a93c
00000130: f1d9 d73c ff3e 5a3d be50 6e3c f2ef 5f3d
00000140: 4443 403d ab03 753d 3079 6d3d 74b6 693d
00000150: bc91 ba3c a20a 6ebc b2b6 78bc a432 313c
00000160: 1014 95bc 2155 95bc 1ef3 7b3c 20c0 dc3c
00000170: ce6c 6d3b a429 74bc e37c 9f3c d264 4a3d
00000180: 4fe8 b53d 0e64 c43d 6421 063c e4c7 1e3d
00000190: 70dd a93c 3cfe cbbc 60d3 70bd 9007 a8bb
000001a0: 6a81 943d 8996 c83c 20a0 9b3c deca 283d
000001b0: 55b3 5a3c d44c 413b c59f 9b3d ab3a 513d
000001c0: 8272 093d 40b4 5f3d f306 033d 6a61 76bc
000001d0: 8943 8c3d 6d0a 60bc ae31 493c 0232 bb3b
000001e0: 7726 7dbc 12d4 863d 5dfa d73c 95a6 e93c
000001f0: fd5e 5a3b f137 0a3d 2345 e43c a881 103d
00000200: 2fbc 9abc 9912 9b3a c6ba a83b ab7e 743c
00000210: 3cc3 703b 846d 783c aaa9 903c af60 89bc
00000220: 68e6 a63b f5cf 83bb c54c fd3c b696 64bb
00000230: 878d 1d3d 1863 e53c 5f8b f9bc 6514 a83c
00000240: e1f4 723c 0819 c03c 853b 92ba a9c1 293d
00000250: 9c73 fb3c ce22 523d 3feb 18bd 0c3e 89bc
00000260: 60d1 923c c741 4a3d f267 baba 2d70 14bd
00000270: 1e02 34bc c373 ccbb 1963 cabc 6e48 b33c
00000280: 51dc d3bc 2734 05ba bcf4 813c f0b4 8d3d
00000290: 5529 b23c 4ce1 20bd 2e6e 5b3b 809a c23c
000002a0: 9128 9739 b7c9 05bd 3752 61bb 1383 e03a
000002b0: 1df6 04bd eacd 76ba 6128 603c b08d 673d
000002c0: b829 20bd fac9 2c3c 8635 8abc dc69 81bb
000002d0: 672d 77bd 1dd2 4bbb f28d 44bb 67f2 803b
000002e0: d850 0ebc 8c49 25bd b40e 6d3c a3ee aa3c
000002f0: ceba 91bc 9502 be3c 29dd fbbc f89d 3d3d
00000300: aa39 30bd 0484 01bd 3272 0a3c 489d febc
00000310: df54 32bd 501a 98bc 36c9 0ebc ede0 703d
00000320: 24ef 163d cd02 fb38 111f ca3c 6fda 3c3d
00000330: 7431 333d fb16 a93c cf16 0b3d 5bfd 5d3d
00000340: f6b2 46bc 3ea6 49bc 4a73 b5bc 4bf7 1cbd
00000350: cb4e 803b aac5 f03c f266 7e3c 65ef f93c
00000360: bac6 8e3b 1d84 283d c108 16bc ddc6 2e3d
00000370: b5b3 0b3d 7f0b db3a c8a7 7b3c 773a 79bd
00000380: 2b40 39bd 2b3b 183d 98b0 453d 0d64 193d
00000390: 156c 8e3d 77a6 99bc 7094 3b3a 5473 c4bb
000003a0: e6d0 ed3b 24c2 8a3c 474b b03d e55b 1d3d
000003b0: 90d4 bf3c 117e 7c3d 3d36 033d 8d5e 283d
000003c0: d335 783d ef25 febb f1d5 463b 7d6e 173d
000003d0: 1afc ef3b 1e1f b03c cb46 e13b 9b3d 8c3d
000003e0: ef02 953d 1423 de3c c97e 383d 43f0 f73b
000003f0: 6295 143d f7d2 26bd 9352 e33c 047e 5f3d

8.bias f4 [10]
-0.050589073 -0.08797356 0.082459554 -0.016545638 0.06675587 0.04292006 0.031479478 0.0556101
-0.13961737 0.002066028
00000000: 7d36 4fbd 7b2b b4bd 8ee0 a83d b88a 87bc
00000010: 4db7 883d f2cc 2f3d a0f0 003d 6bc7 633d
00000020: dbf7 0ebe 3366 073b
